models/autoregressive/best-model.pt (torch, 23654 bytes, 6 tensors)

rnn.weight_ih_l0 f4 [32, 64]
000000 e9 7f ce bd f4 7c 96 bb f6 eb 55 bd c1 63 d4 3d
       -0.10082991 -0.0045925323 -0.052226983 0.10370589
000010 8b 0f ec 3d 8c 51 85 3c 6f b1 71 3e 58 07 f1 3d
       0.11526402 0.016274236 0.23602842 0.11768979
000020 93 a3 19 bd eb 6e 95 bc 4f f1 b7 bc c5 83 24 be
       -0.037509512 -0.018241366 -0.022453932 -0.16065891
000030 44 79 66 be 4a d8 f4 bd c5 c9 2b 3e ac 9f 48 bd
       -0.22507197 -0.11955316 0.16776188 -0.0489804
000040 8c 48 11 3d f2 5e 09 3e 84 82 95 3d 91 cc 49 3e
       0.035469577 0.13415125 0.073002845 0.19706942
000050 40 a4 e2 3d 9a 11 18 3c 95 6c 57 bd fd a4 2b 3e
       0.110664845 0.00928154 -0.052593786 0.16762157
000060 29 14 26 be e4 9f 2b 3e b7 c7 92 3d c1 ed 56 3e
       -0.16218628 0.16760212 0.07166999 0.20989133
000070 dc db 6f bd 76 e3 4d 3e 46 38 d3 3d ba 76 7f 3c
       -0.058559284 0.201063 0.10313468 0.015592271
000080 6c ee 55 3e 9c 03 16 3d a6 c2 12 bd 15 34 ae bd
       0.20891732 0.036624536 -0.035830162 -0.085060276
000090 55 b8 61 3e b8 6b b7 3d 97 14 26 3e a3 ab 90 3d
       0.22042973 0.089560926 0.16218792 0.07063987
0000a0 3c 5b c3 bb 4a f7 9a bd 4c 2f 71 bd cc ba 3f bd
       -0.0059618037 -0.07566698 -0.058882996 -0.046809003
0000b0 80 76 00 bd bc d8 fb 3d f6 7a 70 3e 07 f0 7c be
       -0.03136301 0.12297198 0.23484406 -0.24700938
0000c0 e4 12 c0 bd 09 74 04 3e 02 44 fe bb 3f 61 84 3e
       -0.09378603 0.12934889 -0.007759572 0.25855443
0000d0 16 40 89 3d 4b 22 46 3e 3a 3e 75 be bd d5 55 bc
       0.067016765 0.19349019 -0.23949519 -0.013051447
0000e0 b6 35 b0 bd 76 0d ec 3d 75 70 eb 3d 63 39 bc bc
       -0.086039945 0.11526005 0.11496059 -0.022976583
0000f0 2f 62 2f bd bd 7d 19 3e d4 1b 39 3e ed 07 62 3d
       -0.042818245 0.14989372 0.18077022 0.05518334
000100 da b8 c4 bd 6e 2c 7a 3e 46 c5 83 bd 97 2f 09 3e
       -0.0960557 0.24431011 -0.06434111 0.1339706
000110 47 16 17 be 72 3c 14 3e 87 7e 99 bb e0 1e f8 3b
       -0.14754592 0.14476183 -0.0046842727 0.00757204
000120 1c af 32 3e be bc 19 bd f4 92 41 3c 09 4c 5f 3d
       0.17449611 -0.037533514 0.0118148215 0.054515872
000130 7c f2 34 3e eb 1d ad 3d ff 86 13 3e 60 a9 6d bd
       0.17670625 0.08452972 0.14406966 -0.058022857
000140 da ba 67 3e 75 47 44 3d 1f 30 3a 3e 45 d3 e2 3d
       0.22629872 0.04791971 0.18182419 0.11075453
000150 84 c2 33 3d e4 6d 06 be b9 f6 2b 3d f9 09 3f 3d
       0.043886676 -0.13127857 0.04198334 0.04664037
000160 bc c5 f2 bc 66 e9 7c be 99 6e a4 3d 4f 8a 2a 3e
       -0.029635303 -0.2469841 0.08028907 0.16654323
000170 a7 fc 96 bb e4 d7 ff bd 5e d5 b0 3d e4 a7 6d 3e
       -0.004607755 -0.1249235 0.086344466 0.23208576
000180 dc e9 9a bd a2 76 36 bc 3a b2 ad bd d3 6a 84 3c
       -0.075641364 -0.011136683 -0.0848126 0.016164219
000190 f5 09 db bd c0 b1 26 be 74 79 6c bd 85 ad 9c 3d
       -0.106952585 -0.16278744 -0.057733014 0.07650284
0001a0 3c b3 1a 3d f3 3d 6b 3c f3 cf 0c be a1 8f 7b 3e
       0.037768587 0.014358032 -0.13751201 0.24566509
0001b0 e4 c9 0c bd a7 39 01 be 3d 4d 73 3d 8c bc 46 bd
       -0.034372225 -0.12619649 0.059399832 -0.048519656
0001c0 12 06 22 3e 0d 63 f5 3d a5 b7 b6 bc 70 ad bf 3d
       0.15822628 0.11981783 -0.022304365 0.093592525
0001d0 a4 c5 99 3d 8a f2 4f 3e b0 5b 6c 3e 72 45 eb bb
       0.075084 0.20307365 0.23081851 -0.0071799094
0001e0 d8 56 29 be ee 86 01 3b 97 c2 e2 bd c2 96 1e be
       -0.16537035 0.0019764262 -0.11072271 -0.15487197
0001f0 d6 95 cb 3c d7 8d e8 3d 57 f3 fe 3d 8d 1a 82 bb
       0.02485172 0.11355179 0.12448757 -0.0039704503
000200 ab cb 2a be 70 1f 1e bc 0a 86 9e bd c5 de 26 3e
       -0.16679256 -0.00965105 -0.0774041 0.16295917
000210 c0 fc 31 be f4 6e 09 3d 5b 38 b2 3d 19 e8 52 3e
       -0.17381573 0.03355308 0.08702155 0.2059635
000220 0c 46 8a bd a5 71 c0 3d 5d 4c d0 bd a8 48 6c be
       -0.06751642 0.09396676 -0.10170815 -0.23074591
000230 d1 c6 d2 bd 8f 51 49 3e 3c b2 83 3c a9 39 66 3e
       -0.102918275 0.19660018 0.0160762 0.22482933
000240 9d 02 05 3d a6 a0 2c 3e 8e ae 4b be 21 d6 85 3e
       0.032473195 0.16858158 -0.19890806 0.2613993
000250 f7 09 b0 3b 0a f7 21 be 31 c2 26 3e 66 ca 1d 3d
       0.0053722817 -0.15816894 0.16285016 0.0385231
000260 b9 eb 1c 3e f0 6b dd 39 10 c1 89 3c d4 cb 33 3d
       0.15324296 0.00042232824 0.016815692 0.043895558
000270 e1 f9 d2 bd 28 63 0d 3b 81 82 79 be a1 cf ad bd
       -0.10301567 0.0021573994 -0.2436619 -0.08486868
000280 4d 3f 22 3e 94 02 3f bd d3 73 4e 3c 2b 8d af 3c
       0.1584446 -0.046633318 0.012600857 0.021429619
000290 9c 17 b7 bd d1 c1 02 be 78 44 cc bd 42 3c fd bc
       -0.0894005 -0.12769248 -0.09973997 -0.030912522
0002a0 0b 0d e6 bd 8f d7 b1 bd 47 7d 2d be b1 dc 31 bd
       -0.112329565 -0.08683693 -0.16942321 -0.04342336
0002b0 7a 23 90 bd 54 93 64 3e ce e6 3b 3e df e1 d6 3d
       -0.070380166 0.22321826 0.18349764 0.104923
0002c0 ee ff 91 3d fe 7c 98 bc f8 49 33 be e0 96 cc bc
       0.07128893 -0.018614288 -0.17508686 -0.024974287
0002d0 bd 4e 1f be 60 15 1d 3e 48 f4 1f bd 1b a8 08 bd
       -0.1555738 0.15340185 -0.039051324 -0.033363443
0002e0 f3 33 0f bb 20 9a 25 be ba 7a 17 bd f0 2a 28 be
       -0.0021851033 -0.16172075 -0.036982276 -0.1642263
0002f0 20 a0 d2 3b 68 40 8c 3d 57 8e 14 bd ae d7 15 be
       0.00642778 0.06848222 -0.03626856 -0.14633057
000300 0a b5 61 3d f6 18 96 bc f0 cb 4e 3e ba 2a 57 bc
       0.055104293 -0.01832245 0.20194983 -0.013132745
000310 f0 6f e0 3d 65 4a b4 3d 92 3c 97 bd 2e 8b 45 3d
       0.109588504 0.08803252 -0.073846 0.048228435
000320 c5 bf 40 bd e2 4a 8b 3c 0c 71 0f 3e be e6 12 be
       -0.047057886 0.01700348 0.14007968 -0.14345834
000330 9e e9 af 3d 10 23 e2 3d 52 d7 63 3e ad 8d 2a 3d
       0.08589481 0.11041844 0.22250107 0.04163902
000340 b6 e7 48 be 62 b2 20 bc 25 fb e7 bc 32 61 9b 3d
       -0.1961964 -0.009808155 -0.028317997 0.07586898
000350 de f8 9e 3d 59 74 91 3c 49 f4 17 be 94 8f 01 3e
       0.077623114 0.017755674 -0.14839281 0.12652427
000360 ce 7f bc bd b6 2a ed bd 7d 5b 51 be 7d 79 31 be
       -0.09204064 -0.11580412 -0.20445056 -0.173315
000370 a2 1e 09 be 1b 99 1e be 53 47 2f 3e c6 6f 85 3d
       -0.13390592 -0.15488093 0.17117052 0.0651546
000380 77 63 d1 bd 04 f8 8c 3c 9a c4 01 3c b4 93 f1 bd
       -0.102240495 0.017208107 0.007920409 -0.1179575
000390 a6 18 5e 3e f0 6d 31 bc 58 cb 88 3d a6 45 ba bc
       0.2168909 -0.010829434 0.0667941 -0.02273829
0003a0 c0 a0 d3 3b 24 83 3a be f3 3d 01 3d ce ab cd bd
       0.006458372 -0.18214089 0.03155322 -0.10042535
0003b0 de 13 18 be bf 60 e7 3d 66 54 b4 3c b3 c8 dc bd
       -0.14851329 0.1129775 0.0220129 -0.10780468
0003c0 f8 ba 30 3e 94 37 84 3c f0 d7 31 be ac c6 8e 3d
       0.17258823 0.016139783 -0.1736753 0.069714874
0003d0 70 c1 16 bd 85 13 96 bd 71 40 0f bd e6 22 33 bd
       -0.03680557 -0.07327942 -0.034973565 -0.043734454
0003e0 06 69 d3 3d 34 78 62 3d be f7 c6 3d ea af 95 3c
       0.10322766 0.055290416 0.09715222 0.018272359
0003f0 10 88 12 be 1b 72 06 be 51 98 08 be 6b d4 57 3e
       -0.14309716 -0.13129465 -0.13339354 0.21077125

rnn.weight_hh_l0 f4 [32, 32]
000000 4d 75 0a 3e dc 6d da bd 8b 1b e2 3d 24 4a 3a be
       0.13521309 -0.10665485 0.1104041 -0.18192345
000010 19 83 83 3d fa a2 d8 3d 25 be d5 3d fe 87 93 3d
       0.06421489 0.1057796 0.10436658 0.07203673
000020 eb a8 86 3d 70 84 50 be d8 f6 8f bd f7 0f 4c be
       0.06575187 -0.20363021 -0.070295036 -0.19927965
000030 30 0f aa 3d fd 2a ac 3d bb 8a f8 3d 84 8a 16 be
       0.08303678 0.08406637 0.12135836 -0.14701277
000040 8d 83 bc 3d 4f e5 49 3e b3 f5 52 be 59 1f 3e 3d
       0.09204779 0.1971638 -0.2060154 0.046416614
000050 78 64 c3 3b cc 9c f7 3d 30 3e 35 3d bb 6c e3 bb
       0.0059629045 0.120904535 0.04424876 -0.006940452
000060 1c e8 1c be 79 5b 1a 3e 8d e1 45 be 1e 56 9b bd
       -0.15322918 0.15073957 -0.19324322 -0.07584785
000070 31 ce bb bc ec 2e 6b 3d 8b 61 72 be 4a a1 c9 bd
       -0.022925468 0.057417795 -0.23670022 -0.098452166
000080 b0 96 bf 3d 10 aa 42 3b 47 db 94 bc c9 90 82 bd
       0.09354913 0.0029703416 -0.018170966 -0.06375272
000090 94 9f bb bb 85 c0 a6 3d 38 fd 39 3e d5 34 46 3e
       -0.0057258103 0.08142189 0.18163002 0.19356091
0000a0 08 6a 42 be 7a 0d b3 3d 21 48 63 3d 1d b9 74 be
       -0.1898576 0.08742805 0.05548871 -0.2389874
0000b0 d2 aa d0 bc 49 29 8c bd fb 57 32 3e 11 0e e5 bd
       -0.025472078 -0.06843812 0.17416374 -0.111843236
0000c0 f0 3d f0 bd 3f 17 83 3e 7e 32 57 bd eb f0 5d 3e
       -0.11730564 0.25603673 -0.052538387 0.21673934
0000d0 61 2b c6 bd 1c 13 7f 3c db 2d 6c bd bd 52 88 be
       -0.096762426 0.015568521 -0.05766092 -0.26625624
0000e0 10 81 97 bd a7 e9 0b 3e b6 03 4c be 68 3f d9 3a
       -0.073976636 0.1366335 -0.1992329 0.0016574683
0000f0 d6 49 be bd 73 65 00 be 2c a7 c6 bd c1 f2 4e be
       -0.09291427 -0.125387 -0.09699854 -0.20209791
000100 c1 22 ca 3d 1b 11 0d 3e a5 a9 a9 bd c1 1d 58 3e
       0.0986991 0.13776056 -0.0828431 0.211051
000110 40 59 c5 bd cb cf eb bd 1a 8f c3 bd 53 ff ef bc
       -0.09636164 -0.11514243 -0.09548779 -0.029296553
000120 bd 9c 36 3e 3e 1b 05 be 12 17 00 be 74 a4 c6 3c
       0.17833228 -0.12998673 -0.125088 0.02424834
000130 18 9b b1 3d b1 66 26 3d 97 20 a1 bd 93 f0 db 3d
       0.0867216 0.040625278 -0.07867544 0.10739245
000140 d2 f9 ca 3d c5 2e 65 bd da bd d8 3d ae 2f e8 3d
       0.09910931 -0.055952806 0.10583086 0.11337219
000150 17 48 0c be 20 89 e5 3c 06 65 32 be 86 04 3a bd
       -0.13699375 0.028019488 -0.1742135 -0.04541447
000160 1b 43 eb bc 8c 52 02 3e a1 63 33 3d dc 3f 1b 3e
       -0.028718522 0.12726802 0.043796185 0.15161079
000170 55 45 5e be 52 17 d1 3c a9 d8 45 be 62 11 d4 3d
       -0.21706136 0.025523815 -0.1932093 0.10354878
000180 db fb e4 3c f6 27 84 bd 79 bc 71 3e 73 a6 0c be
       0.027952125 -0.064529344 0.23607053 -0.1373537
000190 1e ea a8 3c 49 b3 a7 3d db b0 ab 3d 91 2b 6d 3e
       0.020619448 0.08188493 0.08383342 0.2316115
0001a0 fe c5 63 3d 6c a5 f8 3d 5f 58 8e bd 65 e6 59 be
       0.055608742 0.12140927 -0.06950449 -0.21279295
0001b0 af 61 30 3e f4 30 6c bc e7 81 31 3e de e8 8c 3d
       0.17224763 -0.014415968 0.1733471 0.068803534
0001c0 34 51 70 3d b2 25 8f bd cc 8e f0 bd ff 78 e2 bd
       0.05867119 -0.06989612 -0.11745986 -0.110582344
0001d0 04 ba 35 be 89 94 35 3d 6a c0 3f bd 22 28 00 be
       -0.1774674 0.044331107 -0.04681436 -0.1251531
0001e0 24 6a 0e be 75 b7 eb 3d d6 37 59 3c 4c a7 6e 3e
       -0.13907677 0.11509601 0.013257941 0.23306006
0001f0 9a 6a 29 be cb a6 1d be 3d 83 6c 3c dd 7d 2f be
       -0.16544572 -0.15395658 0.0144355865 -0.17137857
000200 6e bf 75 3e dd 55 33 3e 7f a5 c9 bd d0 22 0f 3d
       0.23998806 0.17513223 -0.09846019 0.03494531
000210 02 04 e8 bc 44 6a 81 3d 64 de 73 bc d0 16 02 bd
       -0.028322224 0.06319097 -0.014884565 -0.031760037
000220 37 f3 04 3e 74 f4 4b be 89 1f 0a bd b6 3b e3 bd
       0.12983404 -0.1991747 -0.03372148 -0.11095373
000230 8a 5f 0f 3c a5 19 e2 bd 70 d1 a9 39 7b ed 34 be
       0.008750806 -0.110400476 0.00032390235 -0.17668717
000240 d2 f7 38 3e ee 05 02 3e 71 af 4d be 66 67 1a 3e
       0.18063286 0.12697574 -0.20086457 0.15078506
000250 3a be 3d be cf 0b 03 3e f1 63 85 be 63 2b 54 be
       -0.18529597 0.12797473 -0.26052812 -0.20719676
000260 1d 90 81 3d d3 55 2e 3e 7c d8 86 3d 23 76 74 bd
       0.063263156 0.17024927 0.0658426 -0.059682976
000270 cd 9e 48 be 39 92 14 3d 84 3f 63 3c 76 2f fb 3c
       -0.19591828 0.03627226 0.013870124 0.03066228
000280 19 4d 68 3e cd ef 58 3e 56 99 c8 3d 7a f4 ce 3d
       0.2268566 0.21185227 0.097948715 0.10105224
000290 b5 2a 92 bd 6e 62 62 3e 8f 12 3a 3e 78 b4 3c 3e
       -0.07137052 0.2210786 0.18171142 0.18428218
0002a0 21 f7 b5 bc ab 04 fb 3d 83 fc 3f be d9 05 30 be
       -0.022212567 0.1225675 -0.1874867 -0.1718973
0002b0 3c 96 aa bd 12 fd 40 be 6a 97 94 3c e8 2d 07 be
       -0.08329436 -0.18846539 0.018138606 -0.13201106
0002c0 71 b4 c4 bd 0f 17 01 3d 95 a1 d5 bd cd 58 94 3b
       -0.09604729 0.03151613 -0.1043121 0.0045271874
0002d0 45 7a 2f be 2a 43 7b bc 53 a1 3e be 99 0e 5b be
       -0.17136486 -0.015335837 -0.18616228 -0.21392287
0002e0 c3 38 5f be 54 1a 48 3d db 76 29 be 80 f3 2c 3e
       -0.21798997 0.048853233 -0.16549246 0.16889763
0002f0 ea 6e 5c be 0c 58 50 be 1e a2 87 bc a7 3f 25 be
       -0.21526685 -0.20346087 -0.016556796 -0.16137563
000300 26 b8 43 3e fb a8 37 3e 15 2e a2 bc b7 08 0c 3e
       0.19113216 0.17935555 -0.019797364 0.136752
000310 47 86 9d bd e6 c4 89 3d 90 36 59 bd 16 68 f8 3d
       -0.07691627 0.067270085 -0.05303055 0.12129228
000320 05 f2 1e be 97 4c a2 bd df 7e 4f be 8e e8 bb 3c
       -0.1552201 -0.079247646 -0.20263241 0.02293804
000330 76 7b 93 3d 5c 12 19 be 2e 4f 5a 3e 44 c3 8a bc
       0.07201283 -0.1494841 0.21319267 -0.016938813
000340 1a 3f ea 3d 12 03 ef bc cd 4c 51 be d0 76 66 3e
       0.11437817 -0.029176269 -0.20439453 0.22506261
000350 b4 e3 ae 3d 33 1e 3c 3e 2e 07 bc bd 84 e4 d7 bd
       0.08539525 0.18370895 -0.09181057 -0.10541633
000360 1a 90 49 be 8f 46 4d 3e 30 6d fb bd 19 70 b0 bd
       -0.19683877 0.20046447 -0.12276685 -0.08615131
000370 90 c4 35 be 0e 3d 5b bd 08 c2 4e bd 2c bc 27 be
       -0.17750764 -0.053525023 -0.05047801 -0.16380376
000380 22 a4 28 3e 8a ee 4b bc db 7a 70 be 33 4b 9e 3d
       0.16468862 -0.012447009 -0.23484366 0.07729187
000390 bd 0f 4f 3e 4a 7b e0 3d 57 af 03 3e 5e d5 16 3d
       0.20220847 0.109610155 0.12859856 0.036824577
0003a0 8a ee a3 bb c1 d2 46 be f4 17 72 be 88 f4 a7 3c
       -0.0050028013 -0.19416334 -0.2364195 0.020502344
0003b0 13 0b 43 3d 18 1e 77 be f1 f0 7e 3d fa 96 51 be
       0.047617983 -0.24132574 0.0622415 -0.20467749
0003c0 a3 e6 2a 3d 14 46 f4 bd 21 ea 58 be 3b 29 96 3d
       0.04172386 -0.11927429 -0.21183063 0.07332083
0003d0 ea 89 62 be 52 34 39 3c 10 ea f8 bd 33 08 63 be
       -0.22122923 0.011303978 -0.12154019 -0.22171097
0003e0 ca aa 22 bd b3 d6 c9 3d 89 10 86 bd 39 0f 02 3d
       -0.03971366 0.09855404 -0.065461226 0.0317528
0003f0 a0 67 b9 bd f9 70 87 3c e6 ba 24 be 45 21 f7 bd
       -0.09052968 0.016533362 -0.16086921 -0.120668925

rnn.bias_ih_l0 f4 [32]
000000 26 ab 3b 3e ca 5c 94 3d 63 ab f7 3b 11 a2 e7 3d
       0.18327007 0.072442606 0.0075582727 0.113102086
000010 f4 d7 1b 3e 0c 39 df 3d a1 b2 56 3d 79 4d 82 3e
       0.15219098 0.10899553 0.052416448 0.25449732
000020 95 9c 6b 3d 00 90 91 bd 05 cc 88 bb 8f 66 24 3d
       0.057522375 -0.07107544 -0.0041747116 0.04013687
000030 2b 3a e9 3d d0 13 0b be b1 56 22 3e ed bf 26 be
       0.11388048 -0.13581777 0.15853383 -0.16284151
000040 b9 08 b9 bb 04 d0 4f bd c0 bc 51 be 9e 0c 8a bd
       -0.005646792 -0.05073549 -0.20482159 -0.06740688
000050 be 6e 0b 3d c9 9c ae 3d 16 58 00 be 48 b0 54 3d
       0.03404116 0.08525998 -0.12533602 0.051925927
000060 66 fa 49 be f9 15 bf 3d dd 19 6e be c5 81 14 bd
       -0.19724426 0.09330363 -0.23252054 -0.03625657
000070 49 97 8e 3c e2 d9 a9 3d 46 36 5e bd 1d 5b f9 bc
       0.017406123 0.08293511 -0.054250978 -0.030438954

rnn.bias_hh_l0 f4 [32]
000000 4e 36 f2 3c 5b eb 9f 3d 72 3a 13 bd 46 2c d7 bd
       0.02956691 0.07808562 -0.03594441 -0.10506491
000010 1a 05 5e 3e 76 54 f0 3d 3a 6d 95 bd ef 39 31 bd
       0.21681634 0.1173486 -0.07296224 -0.04326814
000020 1d 75 f6 bc 3d fc 31 be ff e3 63 be 70 76 bf bd
       -0.03008514 -0.17381378 -0.22254942 -0.09348762
000030 f6 7b 48 3e 24 e4 42 be cd 13 b2 bd 2a 79 63 be
       0.19578537 -0.19032341 -0.08695183 -0.22214189
000040 4d a3 87 3e 87 2c 77 3e b6 6f 1e be 84 4c 7f 3c
       0.26491776 0.2413808 -0.15472302 0.015582208
000050 0c 4f 2e be 5a 28 39 3e 52 21 80 be ae fd 1f be
       -0.17022341 0.18081799 -0.2502542 -0.15624115
000060 f0 c6 cd 3d a1 13 1d bd 35 ce 7f 3d 3c 3c 2c 3e
       0.1004771 -0.038348798 0.062452514 0.16819853
000070 04 0b 9f bd 9d 93 1e bd 32 51 6a be 90 c0 a3 3a
       -0.07765773 -0.038714994 -0.22882536 0.0012493301

fc.weight f4 [64, 32]
000000 be 38 83 3e ba fe d7 3b 6d 7e 08 bd ac f1 25 3c
       0.25629228 0.006591645 -0.033323694 0.01012842
000010 27 15 88 3e ba 43 d1 3c b5 0f 66 bd cc 17 30 3c
       0.26578638 0.02554499 -0.056167323 0.010747861
000020 bd f6 b3 bd f1 41 91 bd 65 c1 04 3e 48 dd e2 ba
       -0.08787296 -0.070926555 0.12964399 -0.0017308379
000030 fd c8 13 bd 6b 5c 24 3e 67 bc 1c 3d 87 45 10 3e
       -0.03608035 0.1605088 0.038265612 0.14089023
000040 44 c6 61 3c f5 55 1e 3e 73 51 42 3e 40 f7 f6 3c
       0.01378018 0.15462478 0.18976383 0.030147195
000050 a2 2a ff 3d 6d 4c 24 bd dc 9f 99 bc b4 78 03 3d
       0.124593034 -0.040111948 -0.018752985 0.032097533
000060 38 bc d6 bd 6a 2e 88 bd ba 98 7d bc 5f 10 4d 3e
       -0.10485119 -0.06649478 -0.015478307 0.20025776
000070 ed 44 61 bb 3e cf cf 3b d8 9b de bd 43 21 bd bd
       -0.0034373358 0.006341844 -0.108695686 -0.0923486
000080 cc 1e 31 3e 0a 3f 7e bd 4f bc b8 3d 92 9d 3f 3d
       0.17296904 -0.062071837 0.09020292 0.04678113
000090 e3 60 80 3d 44 1b 42 3e 22 2b fb 3c 76 52 70 bd
       0.0626848 0.18955714 0.030660216 -0.05867239
0000a0 35 0c cb 3d bd bb 20 bd 7c b7 ab 3d 2f 87 fe bd
       0.09914438 -0.03924154 0.08384606 -0.12428128
0000b0 b4 69 4a 3e 3e 1a 55 3e 2e 0a e3 3d c5 42 7a 3d
       0.19766885 0.20810792 0.11085926 0.061098833
0000c0 57 da 3c 3e d3 7c 7c bd 0f 34 a8 3d 1b dc 42 3e
       0.18442665 -0.06164248 0.082130544 0.19029276
0000d0 bf 7f c6 bd e2 f4 38 3e 5c f9 87 bc c1 34 ee 3d
       -0.096923344 0.18062165 -0.016598396 0.11631156
0000e0 1f 76 3d 3e 80 23 83 3e f1 75 ac 3d d3 0a 97 bd
       0.18502091 0.25613022 0.08420933 -0.073751114
0000f0 e8 2b 4b 3e 48 38 cb 3c 54 e2 9c bd 40 89 ce bc
       0.19840968 0.02480711 -0.07660356 -0.02521193
000100 6d 36 26 be be 61 44 be 64 f2 67 be 90 64 dc 3d
       -0.162317 -0.1917791 -0.22651058 0.10761368
000110 7e e5 94 3d 1e b9 c7 3d 6c 27 04 3e cc 46 e7 bd
       0.07270335 0.09752105 0.12905663 -0.112928
000120 5d 16 62 be 64 64 8e 3d f5 dc 26 be 44 0f 2e 3d
       -0.22078843 0.06952742 -0.16295226 0.042495027
000130 6c 3c 05 3e 0c f2 d7 bd f3 f4 56 3d 49 21 23 3d
       0.1301133 -0.10544214 0.052479696 0.039826665
000140 9c f2 b2 3d 24 3e a7 3d 1b c1 d0 bd ca d7 f1 bc
       0.0873768 0.08166149 -0.10193082 -0.029521842
000150 98 e0 07 be 85 42 fa 3d be 41 e0 bd 94 ae ad bd
       -0.1326927 0.12219719 -0.10950039 -0.08480564
000160 a2 09 09 bc 0d 50 36 bd 61 58 df 3d 78 11 80 3d
       -0.008364113 -0.044509936 0.10905529 0.06253332
000170 f0 2f f0 3d 56 6d 1b 3e 88 c4 2d be be 62 81 3e
       0.11727893 0.15178427 -0.16969502 0.25270647
000180 92 70 4d 3e 42 d7 4e 3d 86 78 67 3e 0d e5 ac 3d
       0.20062473 0.050498255 0.2260457 0.084421255
000190 c2 7a 2a 3e 06 c1 98 bc 02 ff 8b 3d bf 17 84 3d
       0.16648391 -0.018646728 0.06835748 0.06449842
0001a0 d5 22 15 3e c3 31 2b 3e 4a 3d d8 bc a8 48 2b 3e
       0.14564069 0.16718201 -0.026396412 0.16726935
0001b0 e0 41 49 3d 64 f7 93 3d 36 17 e5 bb e9 70 1d bc
       0.04913509 0.072249204 -0.0069912923 -0.009609439
0001c0 51 1a 85 3e 78 dc 6c 3e ee a2 9f 3d eb 71 a5 3c
       0.2599664 0.23130977 0.07794748 0.020195922
0001d0 df 16 eb 3d 29 b0 a3 3c e2 1a b8 bc f1 14 a6 bd
       0.11478972 0.01998146 -0.022473756 -0.08109463
0001e0 1a 40 60 3e b5 d9 88 3d 35 33 3d be 79 03 66 3e
       0.21899453 0.06682149 -0.18476565 0.22462262
0001f0 90 e8 ed 3c 46 96 d3 3c d3 d6 42 bd 10 b8 a8 bd
       0.029041559 0.025828492 -0.047568154 -0.08238232
000200 f0 51 45 bd 2e 72 d1 3d 9a 68 6c 3d b1 27 bd 3d
       -0.048173845 0.10226856 0.057716943 0.09236086
000210 ce 82 18 3e 54 57 75 3e 1a 0e 7d 3e a1 18 9a 3d
       0.14893648 0.23959094 0.2471241 0.07524229
000220 62 52 a7 bd 12 43 b5 bd fc 73 3f bd b9 c6 cf bd
       -0.0817001 -0.08850683 -0.04674147 -0.10145325
000230 56 5c 8d bd 3e da 5a 3e fa 66 10 3e 1f a4 2b be
       -0.06902377 0.21372315 0.14101782 -0.16761826
000240 0e 80 7e 3d b0 4d 87 3c b9 6f 83 bc 7c 7e 27 3e
       0.06213384 0.016516536 -0.016044484 0.16356844
000250 ea a6 80 bc e8 1f e0 3d 5c fb 82 bd 2c 23 0e 3e
       -0.01570459 0.10943586 -0.06395599 0.13880605
000260 72 30 c6 bc d9 20 32 3e fb 28 16 be 15 a4 81 bd
       -0.024193022 0.17395343 -0.1466407 -0.06330124
000270 27 eb 28 3e ef b5 91 3c 8d 37 e7 3c 33 a6 92 bd
       0.16495954 0.017786948 0.02822473 -0.07160606
000280 1c 1e 61 be 2b 7f ff bd 8c 2b 81 bd 66 2c 96 3d
       -0.21984142 -0.12475427 -0.06307134 0.07332687
000290 9d ba 0d be fe 3b 0e 3d 46 01 9b 3d 14 36 89 be
       -0.13840719 0.03472518 0.07568602 -0.2679907
0002a0 ce e7 d9 3c e1 69 d7 3d a1 4a cc 3d 2f 07 9a bd
       0.02659979 0.10518242 0.09975172 -0.075209014
0002b0 25 14 8c be 12 c8 62 bd 05 03 62 bd 86 be 9b 3c
       -0.2735912 -0.055366583 -0.05517866 0.019011747
0002c0 b3 24 09 be d0 a9 0b ba 24 0e 47 be 07 81 1e be
       -0.13392906 -0.0005327733 -0.19438988 -0.15478908
0002d0 49 fc 53 be 36 77 d6 bd 7a c3 af 3d 89 87 3d be
       -0.20701708 -0.104719564 0.08582206 -0.18508734
0002e0 3c 93 50 bd a3 1a 02 be 23 4d 0e 3e 06 c9 12 bd
       -0.050921664 -0.12705474 0.13896613 -0.035836242
0002f0 39 00 af bd 33 08 23 3e 99 1b 01 bd 6b f0 52 bd
       -0.08544964 0.15921097 -0.03152046 -0.05149881
000300 03 c8 54 be 42 f8 1b 3d ee e3 2b be 2a 07 f1 bd
       -0.20779423 0.038078554 -0.16786167 -0.117689446
000310 d0 5a 4f 3d 47 0f 01 3c b0 e3 30 be 8c 88 33 be
       0.050623715 0.007877178 -0.17274356 -0.17532557
000320 24 fa 20 bd 07 17 3b be 77 71 08 bd d0 b4 a9 ba
       -0.039301053 -0.18270503 -0.033311334 -0.0012947563
000330 e0 8a 0d be 4b 51 67 be 08 65 85 be 10 ab 30 3e
       -0.13822508 -0.22589605 -0.26053643 0.17252755
000340 6a ce b0 3b 19 4b 82 be d2 8f 66 be c1 95 21 be
       0.0053957 -0.2544792 -0.225158 -0.15779783
000350 43 1b 83 bc 42 ca 87 be f6 d3 0f be 96 86 de 3c
       -0.01600421 -0.26521498 -0.140457 0.027163785
000360 03 a9 6b 3b f7 7b 4b be 0c 6e c4 bb 4f f3 0c 3c
       0.0035958893 -0.19871508 -0.005994564 0.008602931
000370 84 38 63 be 9a 59 5b be fd 79 a1 bd 6c 54 51 be
       -0.22189528 -0.21420899 -0.078845955 -0.2044236
000380 7b db 16 3e db 52 5f 3e 83 52 17 3e c1 8c 5e 3e
       0.14732163 0.2180895 0.1477757 0.21733381
000390 d8 a8 f2 3c 5e d6 31 3e d7 ce a8 3d 1e 23 09 3d
       0.029621527 0.17366931 0.082425766 0.033480756
0003a0 82 95 8d 3c 6b ed 3a 3e e6 46 bd bd c6 db 98 3d
       0.017283205 0.1825463 -0.092420384 0.074637935
0003b0 65 d3 86 3e 71 8a 90 bd ed 1d a4 3c b9 ae 21 3e
       0.26333156 -0.070576556 0.020033801 0.15789308
0003c0 1b cc 6c bd d1 8e 81 3e d4 92 d3 3d 3b a3 49 3e
       -0.057811838 0.25304273 0.103307396 0.19691174
0003d0 08 60 ac 3d 54 89 83 3d 48 4f 14 3e c2 ad ea bd
       0.08416754 0.06422678 0.14483368 -0.11458923
0003e0 36 2d 22 3e 04 a9 03 3c fb 59 9e 3d cb 4f 8b 3d
       0.15837559 0.008035902 0.07732006 0.06802329
0003f0 f2 0c 48 3d a4 ca ac 3d 11 57 80 3d 48 cf 8f bd
       0.04884047 0.08437088 0.062666066 -0.07021958

fc.bias f4 [64]
000000 a8 82 a8 3c f5 a0 2a 3e 64 a6 2e 3d 3b 18 6c 3e
       0.020570114 0.16662963 0.04263915 0.23056118
000010 9f 77 2f 3e 3f 9d 8b be bd fa 63 3d cf af 71 bd
       0.17135476 -0.27268407 0.055659045 -0.059005555
000020 7d 83 57 be e2 4b 14 bd ce 3e 93 3c 13 da 25 be
       -0.21046253 -0.03620518 0.017974284 -0.1619647
000030 aa 20 2d 3d 8d ec 07 be 9d bc 57 be f7 02 0e 3e
       0.04226748 -0.1327383 -0.21068044 0.13868318
000040 14 b1 84 3c 1c 2d 25 be 70 51 88 be 18 a6 46 3d
       0.016197719 -0.16130489 -0.26624632 0.048498243
000050 aa 72 36 3e a4 17 01 be f3 d5 ed bd 26 7c 5f 3d
       0.17817178 -0.12606674 -0.11613073 0.054561757
000060 8d 86 68 be 5e dc a0 bd c1 85 fc bd b7 b8 02 bd
       -0.22707577 -0.07854532 -0.12330199 -0.03191444
000070 94 c9 9d 3c 77 75 4a be 6d 60 11 bd 01 ce 38 bd
       0.019261159 -0.19771372 -0.03549235 -0.045118336
000080 a3 e5 a1 3c 0c c0 a5 bb 24 a1 c8 bd 6e 76 84 3e
       0.01976282 -0.005058294 -0.0979636 0.25871605
000090 80 b2 19 3e 3c f6 27 be c4 f4 03 3c 79 1e 3f bd
       0.15009499 -0.16402525 0.008053962 -0.04665992
0000a0 1b 15 00 be 38 3c d9 bd 7b 4b 24 be 0e 77 d7 3c
       -0.12508051 -0.10607189 -0.16044419 0.026301887
0000b0 c7 31 b1 bd e2 cc 9f bd 12 de 14 be c4 18 8c 3d
       -0.086520724 -0.0780275 -0.14537838 0.06840661
0000c0 d6 77 ac bd 08 c3 26 bd a6 7b 31 be 78 ef f9 3c
       -0.084212944 -0.04071334 -0.17332324 0.030509695
0000d0 54 cb 05 3e ed 57 da bd 0d bc 2c be 07 bf ad 3d
       0.13065845 -0.10661302 -0.1686861 0.08483701
0000e0 f4 f8 0a 3d f0 c8 39 bd bc e6 ef 3c d2 de 20 3e
       0.033928826 -0.045357645 0.029284827 0.15709999
0000f0 0a d2 1b bd d2 40 ba bd 5f 97 4d 3d b6 31 c7 3d
       -0.038042106 -0.09094395 0.050193187 0.097262785
