models/masked/best-model.pt (torch, 23654 bytes, 6 tensors)

rnn.weight_ih_l0 f4 [32, 64]
0	0x3df019b7	0.11723655
1	0xbd869fd6	-0.06573455
2	0xbd2ff591	-0.0429588
3	0xbe7d4ed9	-0.24737109
4	0x3b195c42	0.0023400937
5	0xbcb95a03	-0.022625929
6	0x3e3dcdef	0.18535589
7	0x3cb8abaf	0.022542803
8	0xbe45b5e2	-0.19307664
9	0xbd0ffe98	-0.03515491
10	0x3d8d9dd4	0.06914869
11	0xbdf299fe	-0.11845778
12	0xbc03f53e	-0.008054076
13	0xbd51b050	-0.051193535
14	0x3c47ad57	0.0121873235
15	0xbe0054cd	-0.12532349
16	0x3da0dce9	0.07854635
17	0xbe4436fe	-0.19161603
18	0xbd03ed34	-0.032208636
19	0xbdedaeec	-0.11605629
20	0x3e3b2a58	0.18277872
21	0xbe24e86a	-0.16104284
22	0xbe1928c6	-0.1495696
23	0xbd49d9b5	-0.049279887
24	0xbd25e8db	-0.04050527
25	0xbe220754	-0.15823108
26	0x3d0a6384	0.03378631
27	0xbe730c6c	-0.23735207
28	0x3c757f38	0.014983945
29	0x3e44a770	0.19204497
30	0x3c8fe64c	0.017565869
31	0x3d674dca	0.05647067
32	0xbb567b98	-0.0032727476
33	0xbd54ebc1	-0.051982645
34	0x3e846b98	0.25863338
35	0xbe8175e3	-0.25285253
36	0xbe480ca9	-0.1953608
37	0xbd6e7271	-0.05821461
38	0xbe630ed1	-0.22173621
39	0x3dde2c19	0.10848255
40	0x3d8b91ad	0.06814895
41	0x3e1284f0	0.14308524
42	0x3da0e5ed	0.07856355
43	0x3e739969	0.2378899
44	0x3d31437e	0.043277256
45	0xbe545c67	-0.20738374
46	0xbcd8fa6c	-0.026486598
47	0xbe7b5aef	-0.24546407
48	0x3e4b41ff	0.19849394
49	0xbe296ce5	-0.16545446
50	0x3d2176f7	0.039420094
51	0xbdf900a6	-0.12158327
52	0x3e58dccb	0.21177976
53	0x3d6f4448	0.058414727
54	0x3db810fd	0.08987615
55	0x3d280226	0.041017674
56	0x3e2c458c	0.16823405
57	0x3dc80563	0.097666524
58	0xbd7d7218	-0.061876386
59	0x3ca9aefa	0.020713318
60	0x3e4fb953	0.2028554
61	0x3d1b26a6	0.037878655
62	0x3ad3e5ec	0.0016166545
63	0x3ce04ab8	0.027379379
64	0xbdc1fcf8	-0.09472078
65	0xbd26525d	-0.04060589
66	0xbe16701a	-0.14691201
67	0xbd56881a	-0.05237589
68	0xbe316ec8	-0.17327416
69	0x3d50bb74	0.05096002
70	0xbdcad8e0	-0.09904647
71	0x3e0f0f41	0.13970663
72	0x3db9d88e	0.09074508
73	0x3e39a4f2	0.18129328
74	0xbcc214d2	-0.023691569
75	0xbd1e7082	-0.038681515
76	0xbe6a1a8e	-0.22861692
77	0x3dc9fcbe	0.0986266
78	0x3e429988	0.1900388
79	0xbc910e0c	-0.017706893
80	0xbcae4281	-0.021271946
81	0x3d3746e6	0.04474535
82	0x3c157d1b	0.009124066
83	0xbd02dbfe	-0.031948082
84	0x3d87181e	0.06596397
85	0x3e2cc475	0.16871817
86	0xbe09f79e	-0.13473365
87	0x3e30ebb7	0.17277418
88	0xbd4c1af3	-0.04983039
89	0xbdd8f2a0	-0.10593152
90	0x3e117b37	0.14207159
91	0xbd8529e0	-0.06502128
92	0xba1e3930	-0.0006035743
93	0x3e029bf7	0.12754808
94	0x3dae764d	0.08518658
95	0xbb9d1012	-0.0047931755
96	0x3b547ca4	0.0032422924
97	0xbd258d00	-0.04041767
98	0x3e0b555b	0.1360678
99	0x3d5a0f7d	0.053237427
100	0xbdb5a243	-0.088688396
101	0x3e18c5c0	0.14919186
102	0xbd469fe2	-0.04849232
103	0xbd4701e7	-0.0485858
104	0xbd9b0300	-0.075689316
105	0xbe2a33b8	-0.16621292
106	0xbdf27d23	-0.11840274
107	0x3d08dd5d	0.033414233
108	0xbe6290bc	-0.22125524
109	0x3d1c5b5d	0.03817307
110	0xbd9aa9c5	-0.07551912
111	0xbe2d4f37	-0.1692475
112	0x3df03b92	0.11730112
113	0x3d7f6cb3	0.062359523
114	0x3b4b0678	0.0030979197
115	0x3d1415ee	0.036153726
116	0x3d255537	0.04036447
117	0x3e0f2348	0.13978302
118	0xbb9f87cf	-0.0048684846
119	0xbd84db9b	-0.06487199
120	0x3df34a98	0.11879462
121	0xbd40d7a4	-0.04708065
122	0xbe899632	-0.26872402
123	0xbe20e82d	-0.15713568
124	0xbc7574ac	-0.01498143
125	0x3d19c3b9	0.03754017
126	0x3d14be9c	0.03631459
127	0x3d05db9f	0.03268015
128	0xbd45d94e	-0.04830294
129	0xbe7a754c	-0.24458808
130	0x3cdcf729	0.026973324
131	0xbe8083c0	-0.25100517
132	0xbe677e2b	-0.22606723
133	0xbe450775	-0.19241126
134	0xbda9359d	-0.08262179
135	0x3dbbc5ff	0.09168624
136	0x3d3223ef	0.0434913
137	0xbe5afccb	-0.21385495
138	0xbd8aec1e	-0.06783317
139	0x3dbb7c6f	0.09154593
140	0x39d4396c	0.00040478574
141	0xbe3a9eb4	-0.18224603
142	0xbdc8a4ed	-0.09797082
143	0x3d4bc4e4	0.049748316
144	0xbe2fb6fa	-0.17159644
145	0xbe0fe7e5	-0.14053304
146	0x3de27e95	0.110593
147	0x3e119fd6	0.14221129
148	0xbe3d4b00	-0.18485641
149	0x3dbf0e31	0.09328879
150	0x3e04d38b	0.12971322
151	0x3ccd3a94	0.025052346
152	0x3cecf722	0.028926436
153	0x3d8c85dc	0.06861469
154	0x3e007596	0.12544855
155	0x3c656a2f	0.014002367
156	0x3d875ba8	0.06609279
157	0xbe74b509	-0.23897184
158	0xbe1c798c	-0.15280741
159	0xbd931b12	-0.071828976
160	0xbe72b2b5	-0.23700984
161	0x3dbdb073	0.09262171
162	0xbe7aaf55	-0.24480946
163	0x3c8af03b	0.016960254
164	0xbdfe7779	-0.12425131
165	0x3da9d519	0.08292598
166	0xbd2046b2	-0.03912992
167	0xbe156569	-0.14589466
168	0xbe1db5e7	-0.15401421
169	0xbcf96c54	-0.030447163
170	0x3d7dd010	0.061966002
171	0x3d6c639b	0.05771218
172	0xbe308253	-0.17237215
173	0xbd7a2fa9	-0.06108061
174	0xbe43a32c	-0.19105214
175	0xbe8213d9	-0.25405768
176	0xbdd719dd	-0.1050298
177	0xbe4a38e7	-0.19748269
178	0x3d08d7f3	0.03340907
179	0xbd9acba3	-0.07558372
180	0x3df5e2e9	0.1200617
181	0xbe0d7dd6	-0.13817534
182	0xbcf7cc83	-0.030248886
183	0xbdc13c85	-0.09435371
184	0xbddea805	-0.10871891
185	0x3c5e626d	0.013573271
186	0xbe4fa56f	-0.20277952
187	0xbe7108bb	-0.23538487
188	0xbe21f6eb	-0.15816848
189	0xbe473b21	-0.1945615
190	0x3d710c0f	0.05884939
191	0xbdc2b70b	-0.09507569
192	0xbe505657	-0.20345436
193	0xbde05fd8	-0.10955781
194	0xbd7287c0	-0.059211493
195	0x3e7b9fba	0.2457265
196	0xbd25e6ff	-0.0405035
197	0xbe4354ab	-0.19075267
198	0xbe0c713f	-0.13715075
199	0xbdb56d6e	-0.08858763
200	0x3e016c2f	0.12638925
201	0x3e7d45c1	0.2473364
202	0xbd481a80	-0.048853397
203	0x3e055329	0.13020004
204	0xbe0f7826	-0.14010677
205	0x3d9abf81	0.07556058
206	0xbd33a90a	-0.04386238
207	0x3e786111	0.24255778
208	0xbd157531	-0.036488716
209	0x3c1836c5	0.009290402
210	0xbdb2a408	-0.08722693
211	0xbd61946a	-0.05507318
212	0xbe340b20	-0.17582369
213	0xbd080f17	-0.033217516
214	0x3d80d148	0.06289917
215	0x3e5c3d95	0.21507867
216	0xbd8df5a4	-0.06931618
217	0xbe2179c4	-0.15769106
218	0xbdcb9789	-0.099410124
219	0x3dda39df	0.10655569
220	0x3e2dac47	0.1696025
221	0x3d5f8214	0.05456741
222	0xbe485cfd	-0.19566722
223	0x3e0823be	0.13294885
224	0xbe1bc246	-0.15210828
225	0xbe149d20	-0.14513063
226	0x3e715761	0.23568489
227	0x3e15bd7d	0.14623065
228	0xbe00430a	-0.12525573
229	0x3e081745	0.13290127
230	0xbd8146db	-0.06312343
231	0x3dd05dd1	0.10174144
232	0x3e02fcd6	0.12791762
233	0x3e36f66d	0.17867441
234	0xbd8f329f	-0.06992077
235	0xbe3c8fb5	-0.18414195
236	0xbe12be59	-0.14330424
237	0xbc708840	-0.014680922
238	0xbe216792	-0.15762165
239	0x3d9ce7c5	0.07661394
240	0xbcd86ae3	-0.026418155
241	0xbd2d3f3d	-0.042296637
242	0xbb9de0a2	-0.004818038
243	0xbe646413	-0.223038
244	0x3e59304a	0.21209827
245	0x3e30be9e	0.17260215
246	0x3cca6497	0.024706168
247	0x3df0db0b	0.11760529
248	0x3d5c0f87	0.053725746
249	0xbe158289	-0.14600576
250	0x3c26028b	0.010132442
251	0x39b8d550	0.00035254145
252	0xbe00d287	-0.1258031
253	0x3e40d2b5	0.18830378
254	0x3d902802	0.07038881
255	0x3e80d810	0.25164843

rnn.weight_hh_l0 f4 [32, 32]
0	0xbda77380	-0.08176327
1	0x3ddf2f6a	0.108977154
2	0x3da1d5ef	0.07902133
3	0xbd18ed10	-0.037335455
4	0xbbd13b15	-0.006385217
5	0xbd31b00d	-0.043380786
6	0xbde43a72	-0.1114396
7	0x3d87ff78	0.06640524
8	0x3dccd0b8	0.100007474
9	0x3dbbeae0	0.09175658
10	0xbe00d9dd	-0.12583108
11	0xbc8aeaee	-0.016957726
12	0x3e3cb87e	0.18429753
13	0xbd2631b0	-0.04057473
14	0x3c2b67d4	0.010461766
15	0xbd9722be	-0.073796734
16	0x3daab386	0.08335023
17	0xbcad1007	-0.021125806
18	0xbc6bce22	-0.014392408
19	0xbde9cdd8	-0.11416215
20	0xbd5806bd	-0.0527408
21	0x3dd93ccf	0.106073014
22	0x3c18a827	0.009317434
23	0x3c2f63fc	0.0107049905
24	0x3c86cc4a	0.016454834
25	0xbd26bc14	-0.04070671
26	0x3e2635e2	0.16231492
27	0xbc82ecab	-0.015981993
28	0xbda184f9	-0.07886691
29	0xbe0b9771	-0.13631989
30	0xbe2e60c1	-0.17029096
31	0x3e15cd85	0.1462918
32	0x3db11527	0.086466126
33	0xbd35b027	-0.044357445
34	0x3db13f1b	0.086546145
35	0x3ddb3373	0.107031725
36	0x3d73d6ad	0.059530903
37	0x3e58f7ed	0.21188326
38	0xbc79993a	-0.015234286
39	0x3e2d1ff2	0.16906717
40	0xbd5760bb	-0.052582484
41	0xbd29e904	-0.041481987
42	0x3e2fbbb9	0.17161454
43	0xbdd739f9	-0.10509104
44	0xbd02bbd4	-0.031917408
45	0x3b8d960b	0.004320865
46	0xbd92c376	-0.071661875
47	0xbdd6c6ba	-0.10487123
48	0x3e2287be	0.15872094
49	0x3e139079	0.1441058
50	0xbe008d84	-0.12553984
51	0xbddc3ad1	-0.10753406
52	0x3e07c815	0.13259919
53	0xbdf618e8	-0.12016469
54	0xbc53730b	-0.012905846
55	0x3da673d4	0.08127561
56	0xbd8897f1	-0.066696055
57	0x3e53434f	0.20631145
58	0xbcdfa1f3	-0.027298903
59	0x3e3325df	0.17494915
60	0xbd9c6817	-0.07637041
61	0xbdf78c72	-0.12087335
62	0xbd1db1f3	-0.038499784
63	0x3d6fed00	0.05857563
64	0x3e64c108	0.2233926
65	0xbd85efc3	-0.065398715
66	0x3e45821c	0.19287914
67	0x3e49b446	0.19697675
68	0x3e6676be	0.22506234
69	0xbdd09a12	-0.101856366
70	0xbdb849ab	-0.08998426
71	0xbe273983	-0.16330533
72	0xbcfd7e14	-0.030943908
73	0xbdc6e208	-0.09711081
74	0xbe80b8a1	-0.2514086
75	0xbe50dd4e	-0.20396921
76	0x3e288c37	0.16459738
77	0x3e5786eb	0.21047561
78	0x3e4d1435	0.2002724
79	0x3e763eff	0.24047469
80	0xbd989d51	-0.07451881
81	0xbd2b9ea2	-0.04189933
82	0xbe15996a	-0.14609304
83	0x3e2b4f26	0.16729411
84	0xbe076472	-0.1322191
85	0xbd908a99	-0.070576854
86	0xbe807961	-0.25092605
87	0x3cfa7eda	0.030578066
88	0xbe5b2bc0	-0.21403408
89	0xbdfe4081	-0.12414647
90	0x3d47457c	0.04865025
91	0xbb171406	-0.0023052706
92	0x3c2deaf7	0.010615102
93	0xbda41b45	-0.08013014
94	0xbcf2f9ce	-0.029660132
95	0xbe48d3c2	-0.19612029
96	0xbd07a3f6	-0.03311535
97	0x3cb60d59	0.022223162
98	0xbe2cbaa1	-0.16868068
99	0xbdbb3095	-0.09140126
100	0xbe771c9e	-0.2413201
101	0x3d5b29c4	0.053506628
102	0x3e4f6718	0.20254171
103	0x3e3ff3a6	0.18745288
104	0xbda6065f	-0.08106684
105	0xbd695ca2	-0.056973107
106	0xbcf31cf2	-0.029676888
107	0xbab7e99b	-0.0014031412
108	0x3c0d9661	0.00864181
109	0x3d2b6c6c	0.041851446
110	0x3da8036f	0.0820378
111	0xbe4effed	-0.20214815
112	0xbdf1937a	-0.11795707
113	0x3d9a6644	0.07539037
114	0xbdf3a75a	-0.11897154
115	0xbe4c6a74	-0.19962484
116	0x3d92df8b	0.07171544
117	0x3e513c83	0.2043324
118	0x3ddd3c71	0.10802544
119	0xbe65a8b5	-0.22427638
120	0xbd8c2f4b	-0.06844958
121	0xbe68f1a1	-0.22748424
122	0x3e23740e	0.1596224
123	0xbdd39564	-0.103312284
124	0xbdc847d9	-0.09779329
125	0xbe49b368	-0.19697344
126	0x3e085b5d	0.13316102
127	0x3da8901c	0.08230612
128	0x3dc72a8c	0.09724912
129	0x3e4dff76	0.20116982
130	0x3e3b18e9	0.18271221
131	0xbd7c5fd5	-0.06161483
132	0x3e030bb6	0.12797436
133	0xbcee3bad	-0.02908119
134	0x3d15ffc3	0.036620867
135	0xbe2ee81f	-0.17080735
136	0xbd83ec9e	-0.064416155
137	0xbe79811a	-0.24365655
138	0xbe7abd56	-0.24486288
139	0xbe14a5a6	-0.14516315
140	0xbc0a5571	-0.008443222
141	0x3bbee0dd	0.0058251456
142	0x3e0952e7	0.13410531
143	0x3e2a99d4	0.16660243
144	0x3e0e0b89	0.13871588
145	0x3e6b8cdd	0.23002954
146	0xbe682cce	-0.22673342
147	0x3d6241a3	0.055238377
148	0xbe0bf958	-0.13669336
149	0xbc2c8290	-0.010529175
150	0xbe6405b8	-0.22267807
151	0x3e2ae926	0.16690502
152	0xbe0da3e5	-0.13832052
153	0xbdf45c44	-0.11931661
154	0xbe0d5dda	-0.13805333
155	0x3d9b6533	0.075876616
156	0xbe3222a1	-0.17396022
157	0xbc95dd27	-0.01829393
158	0xbe20cbd4	-0.15702754
159	0x3d213944	0.039361253
160	0x3d10c26d	0.03534167
161	0xbcf411ba	-0.029793609
162	0xbd9501a0	-0.072757006
163	0xbe19ffbb	-0.1503896
164	0xbe2c76ed	-0.16842242
165	0x3db3053d	0.087412335
166	0x3e31661f	0.17324112
167	0x3da764e8	0.08173543
168	0x3d7bac7e	0.0614438
169	0xbd579fa0	-0.052642465
170	0x3e1b7b1a	0.15183678
171	0xbb8444c6	-0.0040365187
172	0x3df90dd4	0.12160841
173	0xbe74d875	-0.23910697
174	0x3d22fff6	0.039794885
175	0xbd236a1c	-0.039896116
176	0x3dba80da	0.09106608
177	0xbe1f767d	-0.15572543
178	0xbdb8bd4b	-0.0902048
179	0x3b890f8d	0.004182762
180	0xbd798f88	-0.060927898
181	0x3e7f0a0f	0.24906181
182	0x3e8042fc	0.25051105
183	0xbe4885ba	-0.19582263
184	0x3e5dfca1	0.21678402
185	0xbe0195d2	-0.12654808
186	0x3e39c473	0.18141346
187	0x3e5eb4e9	0.21748699
188	0x3e26d627	0.1629263
189	0x3d8e6aad	0.069539405
190	0x3c29f29b	0.010372783
191	0x3d17db32	0.037074275
192	0xbe3acc28	-0.18241942
193	0x3dbd7c33	0.09252205
194	0xbe4880ec	-0.1958043
195	0xbe443cbb	-0.19163792
196	0x3c94830f	0.0181289
197	0xbdb4bd06	-0.08825116
198	0x3e376612	0.1791003
199	0x3cde9a54	0.027173199
200	0x3e1394e5	0.14412268
201	0x3ddb301b	0.10702535
202	0x3dd36739	0.103224225
203	0x3e5ac474	0.21364003
204	0xbe4f6ebb	-0.20257084
205	0xbe0ebc7d	-0.1393909
206	0x3d912c37	0.070885114
207	0xbd0ded54	-0.03465016
208	0x3d63dc30	0.05562991
209	0xbe5d2bf1	-0.21598794
210	0x3ddb5e4a	0.107113436
211	0xbd5667fe	-0.05234527
212	0x3e5908e5	0.21194799
213	0xbda676c6	-0.08128123
214	0x3dc22f7e	0.09481715
215	0xbe61d49d	-0.22053762
216	0x3cfe59f8	0.03104876
217	0x3d4639c8	0.04839495
218	0xbe0c4ff6	-0.13702378
219	0x3e50b49b	0.20381396
220	0xbd6e7248	-0.058214456
221	0xbe0f0243	-0.13965707
222	0x3dfec27b	0.12439438
223	0x3e0ad1d2	0.13556603
224	0x3c9ffb77	0.019529087
225	0x3b05d1a8	0.0020419154
226	0xbe835336	-0.25649422
227	0xbdd85cd5	-0.10564581
228	0xbe4af4a2	-0.19819883
229	0x3e59b5b4	0.2126072
230	0xbcb0e4ec	-0.021593533
231	0xbca540cb	-0.020172497
232	0xbd843ea9	-0.06457264
233	0x3d2baffc	0.04191588
234	0x3cad91fc	0.021187775
235	0x3e0fe818	0.1405338
236	0xbd5eff7e	-0.054442875
237	0xbe0d7d63	-0.13817362
238	0xbe5d4beb	-0.21610992
239	0xbe27663b	-0.16347592
240	0x3e3bb39a	0.18330231
241	0xbccea72c	-0.025226198
242	0x3d1790d6	0.03700336
243	0xbd98bb75	-0.074576296
244	0x3e352f6c	0.17693871
245	0x3e580362	0.2109504
246	0xbcf0eb40	-0.029409051
247	0xba9fc158	-0.0012188358
248	0x3dd4ae1a	0.1038477
249	0x3b7b73de	0.0038368623
250	0xbd0777db	-0.033073287
251	0xbd34c2d1	-0.044131104
252	0xbd5b6224	-0.05356039
253	0x3d749876	0.05971571
254	0x3e867043	0.26257524
255	0x3db3e356	0.08783595

rnn.bias_ih_l0 f4 [32]
0	0xbe185c82	-0.14879039
1	0xbdb60f49	-0.08889634
2	0xbd9dce53	-0.07705369
3	0xbd62a236	-0.055330478
4	0xbe284b6d	-0.16435023
5	0x3e3704c3	0.1787291
6	0xbdc750dd	-0.0973222
7	0x3cefacbe	0.029257175
8	0x3d3b0df2	0.045667596
9	0x3c8a69c0	0.016896129
10	0x3e85e095	0.26147905
11	0x3e1261e1	0.1429515
12	0xbdc90853	-0.09816041
13	0xbd89bee3	-0.06725862
14	0x3d429d6f	0.04751342
15	0xbdbd07ae	-0.092299804
16	0x3d80af49	0.06283433
17	0xbe221277	-0.15827356
18	0x3e2d3143	0.16913323
19	0xbde18266	-0.110112
20	0x3e423a73	0.18967609
21	0x3e18ac5a	0.14909497
22	0x3d8a1465	0.06742171
23	0xbde9e96b	-0.11421474
24	0x3e14ab3b	0.14518444
25	0xbdb6cfed	-0.089263774
26	0x3e292e68	0.16521609
27	0x3e243a4a	0.1603786
28	0x3d88227a	0.06647201
29	0x3d8e284b	0.06941279
30	0x3e52b5bd	0.2057714
31	0x3d8a07d3	0.067397736

rnn.bias_hh_l0 f4 [32]
0	0x3d91fea8	0.0712865
1	0xbcfb2c03	-0.030660635
2	0xbe69f30e	-0.22846624
3	0x3d9c7993	0.07640376
4	0xbd1282fb	-0.035769444
5	0xbd95d64d	-0.07316265
6	0x3c002544	0.007821385
7	0x3e5cb423	0.21553092
8	0x3ddd1967	0.10795861
9	0x3e4d637b	0.2005748
10	0x3e86c854	0.26324713
11	0x3cfd96ca	0.03095569
12	0xbd5d427a	-0.054018475
13	0xbe226197	-0.1585754
14	0xbe2407a7	-0.16018544
15	0xbd86a13e	-0.06573723
16	0xbbaf268e	-0.0053451722
17	0xbe192d70	-0.1495874
18	0x3e32fb8e	0.17478773
19	0x3d4f2fc2	0.050582655
20	0x3de5c8cd	0.1121994
21	0x3e68482a	0.22683778
22	0x3e0ef241	0.139596
23	0x3d9d02c7	0.07666545
24	0x3d8c2925	0.06843785
25	0x3d028f50	0.031874955
26	0xbd89999a	-0.0671875
27	0x3e0e8828	0.13919127
28	0x3e7c74de	0.24653956
29	0x3b55453c	0.0032542488
30	0x3cc48f7c	0.0239942
31	0xbcf3ba91	-0.029752048

fc.weight f4 [64, 32]
0	0x3d958120	0.07300019
1	0x3e3479fa	0.17624655
2	0xbe0dc24d	-0.13843651
3	0xbc8f5ef2	-0.017501328
4	0x3db66493	0.08905902
5	0xbdb6edce	-0.089320764
6	0xbd9e12a2	-0.07718398
7	0x3e560a0e	0.20902273
8	0xbdbacd8a	-0.09121235
9	0x3d89a66d	0.06721196
10	0x3e1195a1	0.14217235
11	0xbafa0d20	-0.0019077398
12	0x3d6e4ef6	0.05818077
13	0xbd7f076f	-0.06226295
14	0xbe12a217	-0.14319645
15	0x3dd2ad8e	0.10287009
16	0x3dc6df2e	0.09710537
17	0x3d8584ef	0.06519496
18	0x3d1c0d61	0.038098697
19	0x3d783984	0.060601726
20	0x3e86f24e	0.2635674
21	0xbd46f99d	-0.048577894
22	0x3db618a2	0.08891417
23	0xbdd566d6	-0.10420005
24	0x3d603b78	0.054744214
25	0xbcaa0406	-0.020753872
26	0x3cee1b92	0.02906588
27	0x3e87ba72	0.26509434
28	0x3e6946ee	0.22780964
29	0x3d34b00e	0.04411321
30	0x3e89fafb	0.26949295
31	0xbda1faa4	-0.07909134
32	0xbda51e08	-0.08062369
33	0xbd195484	-0.037434116
34	0x3d138b5e	0.036021583
35	0x3d098fc2	0.033584364
36	0xbc8d8b31	-0.017278286
37	0x3e281b5f	0.16416691
38	0x3e87df97	0.26537773
39	0x3df0d578	0.11759466
40	0xbe585b20	-0.21128511
41	0xbc94afb8	-0.018150195
42	0x3e0857d6	0.13314757
43	0x3e8836b1	0.26604226
44	0x3e4482bb	0.19190495
45	0x3da0b71e	0.07847427
46	0x3dcff9ac	0.10155043
47	0x3cfbc057	0.030731363
48	0xbd181bd8	-0.03713593
49	0x3d834a1f	0.06410622
50	0xbc8bb3b0	-0.017053455
51	0x3da5920a	0.08084495
52	0xbafcb02c	-0.0019278578
53	0x3e3e30be	0.18573281
54	0x3e80203c	0.25024593
55	0xbe5207f4	-0.20510846
56	0x3de81053	0.113312386
57	0x3ddaced8	0.106839836
58	0x3d97c547	0.074106745
59	0xbe80619d	-0.25074473
60	0x3dc5fed0	0.09667742
61	0xbd351416	-0.04420861
62	0x3e136766	0.14394912
63	0x3e825db8	0.25462127
64	0xbe169ba3	-0.14707808
65	0x3dab1797	0.08354109
66	0xbd0f536b	-0.034991663
67	0x3c86bed3	0.016448414
68	0x3d374e5e	0.04475247
69	0xbdcd439f	-0.10022663
70	0x3db00e0a	0.08596428
71	0x3dc65a7f	0.096852295
72	0xbd7fd433	-0.06245823
73	0xbcfd8a1a	-0.030949641
74	0xbd9444a7	-0.07239657
75	0x3d0bd9c5	0.034143228
76	0x3cbf674c	0.023364685
77	0xbde10f6a	-0.10989268
78	0xbd8c5fc9	-0.06854207
79	0x3e16d933	0.14731292
80	0xbe02d924	-0.12778145
81	0xbda425da	-0.08015032
82	0x3e1dcb78	0.15409648
83	0xbba20b70	-0.004945211
84	0x3e2cfb50	0.16892743
85	0x3bfc3e8c	0.007697886
86	0x3cd88f48	0.02643551
87	0xbdec87c9	-0.115493365
88	0x3b2e3c78	0.0026586335
89	0xbcb54409	-0.022127168
90	0xbe445135	-0.19171603
91	0x3d49f336	0.04930421
92	0xbc88566c	-0.016642772
93	0xbe48a949	-0.19595827
94	0x3d8ce96c	0.06880459
95	0x3e2bb310	0.16767526
96	0xbd0c403c	-0.034240946
97	0x3c581fea	0.013191203
98	0x3c95d956	0.01829211
99	0x3e53ebfb	0.20695488
100	0x3d89f267	0.06735688
101	0x3e2c6058	0.16833627
102	0x3dcd17b8	0.100142896
103	0x3e38170b	0.1797754
104	0xbe4a4eab	-0.19756572
105	0x3db11886	0.086472556
106	0x3dc4ac04	0.09603122
107	0x3e0d1ace	0.13779756
108	0xbe41bf8c	-0.18920726
109	0xbe1c527e	-0.15265843
110	0xbd88534e	-0.06656514
111	0xbc9ba4d9	-0.018999504
112	0x3d8a3adb	0.06749507
113	0x3e2c8045	0.16845806
114	0x3e0439bd	0.1291265
115	0xbe6adeaf	-0.2293651
116	0x3e30be9c	0.17260212
117	0x3e1d9546	0.15388975
118	0x3e0aac53	0.13542299
119	0x3d3d9f83	0.0462947
120	0x3cb6921f	0.022286473
121	0x3db1a54c	0.08674106
122	0xbbf584ea	-0.007492651
123	0x3d670824	0.056404248
124	0x3e4bcdf2	0.1990278
125	0xbdecd726	-0.11564474
126	0xbd102d30	-0.035199344
127	0x3e22ce91	0.15899111
128	0xbd5be34a	-0.053683557
129	0xbded36d4	-0.11582723
130	0xbdf5e1e8	-0.12005979
131	0x3d8fba60	0.0701797
132	0xbe07e7d4	-0.13272029
133	0x3e02170b	0.12704103
134	0xbe0c2a33	-0.13687973
135	0xbe1a0f86	-0.15044984
136	0x3c51c5fd	0.012803552
137	0x3e02e05a	0.12780896
138	0x3d5387d1	0.051643196
139	0x3d275b9e	0.040858857
140	0xbd8dc5f9	-0.06922526
141	0x3e137300	0.14399338
142	0x3d33bcfd	0.043881405
143	0x3df8806e	0.12133871
144	0xbddde467	-0.1083458
145	0xbde3b00f	-0.11117565
146	0x3e1e2241	0.15442754
147	0xbe657e9c	-0.22411579
148	0x3e6e8369	0.23292316
149	0x3d85ded5	0.065366425
150	0xbd3e148d	-0.046406318
151	0x3da5553e	0.08072899
152	0x3e7abc83	0.24485974
153	0xbd58d2c4	-0.052935377
154	0x3e4d6a60	0.2006011
155	0x3d011b90	0.031520426
156	0x3dcaa1ef	0.09894168
157	0x3d1fcf2e	0.03901594
158	0xbd8d3cae	-0.06896339
159	0x3ca1252e	0.019671049
160	0xbcae6daf	-0.021292536
161	0xbb677f86	-0.0035323813
162	0xbe29f912	-0.16598919
163	0xbe867690	-0.2626233
164	0x3dbe7051	0.092987664
165	0xbe588d4c	-0.2114765
166	0x3d9887e4	0.07447794
167	0xbe783265	-0.24237974
168	0x3dd55dba	0.104182675
169	0xbe158a24	-0.14603478
170	0xbca23af7	-0.019803507
171	0xbe629dbb	-0.22130482
172	0xbd900142	-0.0703149
173	0xbe1d63cb	-0.15370099
174	0xbe2f209e	-0.17102286
175	0xbdc6178d	-0.09672461
176	0xbab597d0	-0.0013854448
177	0xbe006d87	-0.12541781
178	0x3d9c1d5c	0.07622787
179	0x3d152cf5	0.036419827
180	0x3d28ca48	0.041208535
181	0xbe3052d6	-0.172191
182	0xbe8176fe	-0.25286096
183	0x3d113232	0.03544826
184	0xbe278e53	-0.16362886
185	0xbe4c1119	-0.19928397
186	0xbe7b9ebe	-0.24572274
187	0xbe36caf1	-0.17850854
188	0xbdfb918a	-0.12283619
189	0xbcfa8043	-0.030578738
190	0xbe023e0d	-0.12718983
191	0xbe47f4b1	-0.19526936
192	0xbcf9419a	-0.03042679
193	0xbe0c8778	-0.13723552
194	0x3cebce8b	0.02878501
195	0xbd84d200	-0.06485367
196	0x3e0c4035	0.13696368
197	0xbe6adacd	-0.22935028
198	0xbe80de4c	-0.251696
199	0xbe481f4f	-0.19543193
200	0xbe057760	-0.13033819
201	0x3bbda802	0.0057878504
202	0xbe0a553f	-0.13509081
203	0x3ca50bd4	0.020147242
204	0x3d9582e0	0.07300353
205	0xbd56d324	-0.052447453
206	0x3d576c97	0.052593794
207	0x3d1bb477	0.0380139
208	0x3d74891a	0.059701063
209	0x3d9c0b9c	0.07619402
210	0xbd88fdc8	-0.0668903
211	0xbddc6581	-0.10761548
212	0xbc2fb19a	-0.010723496
213	0xbe4844d2	-0.19557503
214	0xbd55e18a	-0.052217044
215	0x3daf4786	0.08558564
216	0xbe2c2e24	-0.16814476
217	0x3d7797ce	0.060447507
218	0x3cee80b0	0.029114097
219	0xbe667211	-0.2250445
220	0x3b90078a	0.00439543
221	0xbe2d7a7d	-0.16941257
222	0xbc920142	-0.017822865
223	0xbe3c585f	-0.18393086
224	0xbc456d12	-0.01204993
225	0x3d685d1e	0.05672943
226	0x3e28495d	0.16434236
227	0xbcadbe33	-0.021208858
228	0xbda5edaf	-0.08101975
229	0x3b04e988	0.0020280797
230	0x3e5cabaa	0.2154986
231	0x3dd5bab4	0.104360014
232	0xbe0b2309	-0.13587584
233	0x3e8b9056	0.27258557
234	0x3da28f58	0.07937497
235	0x3dac3a9f	0.084096186
236	0x3ce4c85b	0.027927568
237	0xbe05424d	-0.13013573
238	0x3d6a5674	0.057211354
239	0xbd434589	-0.047673736
240	0x3db24a7a	0.087056115
241	0x3dcdf735	0.100569166
242	0x3e06a136	0.13147435
243	0xbe506f10	-0.20354867
244	0x3e00f166	0.12592086
245	0x3d82d78d	0.06388769
246	0x3e5b477f	0.21413992
247	0xbe2a1454	-0.16609317
248	0x3d463b19	0.048396204
249	0x3d317a8f	0.04332977
250	0x3df667e2	0.12031533
251	0x3e69c3df	0.22828625
252	0x3e3d2f40	0.18475056
253	0xbe39366d	-0.18087168
254	0x3dfabb5c	0.12242767
255	0x3e2e7dac	0.17040128

fc.bias f4 [64]
0	0x3d8e2819	0.06941242
1	0xbd32b9d1	-0.04363424
2	0x3e03a723	0.12856726
3	0x3ca485dd	0.020083362
4	0x3dc5467a	0.09632583
5	0x3cd72ed6	0.02626745
6	0xbde465b4	-0.11152211
7	0x3e72aca9	0.23698677
8	0x3d8f17a0	0.06986928
9	0x3d0ca9ff	0.03434181
10	0xbcbedf66	-0.023299884
11	0xbe8029a9	-0.25031784
12	0xbe7b8e86	-0.24566087
13	0xbe57045f	-0.20997761
14	0xbd544bda	-0.05183015
15	0x3e46e0c2	0.19421676
16	0x388b8600	6.652996e-05
17	0xbe25a638	-0.16176689
18	0xbdeb5b04	-0.11491969
19	0xbe80ab8c	-0.2513088
20	0xbdded3a1	-0.10880209
21	0xbde4f225	-0.11178998
22	0xbdbf1e80	-0.09331989
23	0x3d7b2880	0.06131792
24	0x3ce2b239	0.027672874
25	0xbe665509	-0.22493376
26	0x3d68e63a	0.056860186
27	0xbde10b71	-0.109885104
28	0xbcc63ee4	-0.02419991
29	0xbdfa1677	-0.12211316
30	0xbe08db42	-0.1336489
31	0x3e56205b	0.2091078
32	0x3e5ee53a	0.2176713
33	0xbdbcfc2a	-0.09227784
34	0xbe0a7486	-0.13521013
35	0x3d3f27f4	0.04666896
36	0x3d496a84	0.049173847
37	0xbde8a468	-0.11359483
38	0xbd1781a1	-0.036988858
39	0x3dd43c96	0.10363118
40	0xbe0a610f	-0.13513587
41	0xbe68e30f	-0.22742866
42	0xbc9dd178	-0.019264922
43	0x3e476c0b	0.19474809
44	0xbc50d3ac	-0.012745779
45	0xbe732f18	-0.23748434
46	0xbdfa3eaa	-0.122189835
47	0xbd891132	-0.06692733
48	0xbe483617	-0.19551884
49	0x3d6a6314	0.057223395
50	0xbe422d42	-0.18962577
51	0xbd8722e4	-0.06598452
52	0x3d5f6606	0.054540657
53	0xbe2561f9	-0.16150655
54	0xbd7a001c	-0.06103526
55	0x3e6d64a1	0.23182918
56	0xbe23edcb	-0.1600868
57	0xbe003d71	-0.12523438
58	0x3d2f4328	0.042788655
59	0x3df17cb8	0.11791366
60	0x3defb0d4	0.11703649
61	0x3d29226c	0.041292593
62	0xbe0d2902	-0.13785174
63	0x3d3a777c	0.045524105
