model_files/masked/best-model.pt (torch, 23654 bytes, 6 tensors)

rnn.weight_ih_l0 f4 [32, 64]
0	0x3f8edd98	1.1161375
1	0x3f4d0919	0.80092007
2	0xbfdbc0b9	-1.7168189
3	0xbfb4cf89	-1.4125835
4	0xbfb2a0bf	-1.3955306
5	0xbfbf3bdb	-1.4940141
6	0x3f26cf5f	0.65160173
7	0x3fb3dab0	1.4051113
8	0xbfbcd157	-1.4751385
9	0xbfc4732c	-1.5347648
10	0x3ec01398	0.3751495
11	0xbff66a74	-1.9251237
12	0x3ed34f48	0.41271424
13	0xbff1d81c	-1.8894076
14	0xbfbd60a7	-1.4795121
15	0xbfb79194	-1.4341302
16	0xbfbc145a	-1.4693711
17	0xc00365b3	-2.0530822
18	0xbfca7736	-1.581763
19	0x3f2e4da2	0.6808721
20	0xbfb743f0	-1.4317608
21	0xbee39050	-0.4444604
22	0xbfb8aedb	-1.4428362
23	0x3dd56926	0.10420446
24	0xbfb16056	-1.3857524
25	0xbfd8032a	-1.6875966
26	0xbfbfc073	-1.4980606
27	0x3ee3553c	0.44400966
28	0x3e11707c	0.14203066
29	0x3df7c623	0.120983385
30	0xbfb2cacb	-1.3968138
31	0xbe1fa905	-0.1559182
32	0x3f8bf4e9	1.0934116
33	0xbfc89979	-1.5671836
34	0x3e92cbf0	0.28671217
35	0xbfbb767f	-1.4645537
36	0x3edeb23b	0.43495354
37	0xbefc0dcb	-0.49229273
38	0x3f24e757	0.64415497
39	0x3f675677	0.9036631
40	0xbeb4282c	-0.351869
41	0x3f4e24c3	0.80524844
42	0xbfcbd16b	-1.5923284
43	0x3fbdf7fb	1.4841303
44	0x3f068a90	0.5255518
45	0xbfeaef4c	-1.8354278
46	0x3e9b0b5e	0.3028211
47	0x3fa09e4e	1.2548311
48	0xbfcecd03	-1.6156315
49	0xbfc6e793	-1.5539421
50	0xbf9653b9	-1.17443
51	0xbfb7fcd2	-1.437403
52	0x3ecc145f	0.39859292
53	0x3f4c302e	0.79761016
54	0xbfd5e6e9	-1.6711093
55	0x3f87c852	1.0608008
56	0xbf3c8738	-0.7364383
57	0x3d8f635c	0.07001373
58	0x3f434adb	0.76286095
59	0x3ee492f4	0.44643366
60	0xbfcefc35	-1.6170717
61	0xbfeace36	-1.834418
62	0xbfd552da	-1.6665909
63	0xbfb5b1e5	-1.4194914
64	0xbf4677b5	-0.7752641
65	0xbfc363a2	-1.526478
66	0x3e0d12ec	0.1377675
67	0x3fbe43a9	1.4864398
68	0xbfbcdb29	-1.4754382
69	0xbf25e040	-0.64795303
70	0x3ef7a47d	0.48367682
71	0xbecf3935	-0.40473333
72	0xbfbe8c05	-1.488648
73	0xbfbeb789	-1.489976
74	0x3e33baf5	0.17551787
75	0xbdd6f725	-0.10496358
76	0x3f14b94d	0.58095247
77	0xbb8741ce	-0.0041277176
78	0x3e6bff87	0.23046695
79	0xbfbebd06	-1.4901435
80	0x3f2c3918	0.6727462
81	0xbfe2ebf8	-1.7728262
82	0xbf2f9975	-0.6859353
83	0x3f98b46d	1.1930062
84	0xbfbd4c09	-1.4788829
85	0xbfcf5812	-1.6198752
86	0xbf531e19	-0.824678
87	0x3f30ef62	0.6911527
88	0xbfacf0ab	-1.3510946
89	0xbfbf0aeb	-1.4925207
90	0xbc11b01f	-0.008892088
91	0x3ec18725	0.3779842
92	0x3e6a1306	0.2285882
93	0xbfd4b093	-1.6616386
94	0xbe2b6fac	-0.16741818
95	0xbfbc8bda	-1.4730179
96	0x3f5560ba	0.8335072
97	0xbfd19b28	-1.6375475
98	0x3eeae6f7	0.45879337
99	0x3f4cd095	0.8000577
100	0xbfc3f091	-1.530779
101	0xbfe2d72e	-1.7721918
102	0xbfbf9c4b	-1.4969572
103	0x3f7560b0	0.9585066
104	0xbfedd8f8	-1.8581839
105	0xbfbe623d	-1.487373
106	0xbfbdba19	-1.4822417
107	0x3fb85eb3	1.44039
108	0xbfa3ecb0	-1.2806606
109	0xbe3a2737	-0.18179022
110	0x3f20d84e	0.62830055
111	0xbfc150d3	-1.510279
112	0xbfc09f0d	-1.5048538
113	0x3e929e9e	0.2863664
114	0xbe0aea6a	-0.13565984
115	0x3f654ad6	0.89567316
116	0x3f135168	0.5754609
117	0xbf09bf8f	-0.5380792
118	0x3f549f56	0.8305563
119	0x3ed4ca9a	0.41560823
120	0x3e8c2197	0.27369377
121	0xbe5cd418	-0.21565282
122	0x3f5bc0e9	0.8584123
123	0xbed085ce	-0.40727085
124	0xbfc0a4a0	-1.505024
125	0xbfc97e19	-1.5741607
126	0x3d809579	0.0627851
127	0x3f71f865	0.94519645
128	0xc04c97b0	-3.1967583
129	0xc01a8d88	-2.4148884
130	0x3f3d83c0	0.7402916
131	0xc01d355d	-2.456382
132	0xc01ad7da	-2.4194245
133	0x3e7d1572	0.24715212
134	0xbf632bd0	-0.8873873
135	0x3fed8bd7	1.8558301
136	0x3fa4bcfd	1.2870175
137	0xbfea81e8	-1.8320894
138	0xc011a992	-2.2759748
139	0x400034ac	2.0032148
140	0xbe21ba8b	-0.15793817
141	0x3dfe490f	0.124162786
142	0xbf51b068	-0.819098
143	0xc01999ba	-2.4000077
144	0xc01915e2	-2.3919606
145	0x3fb09fba	1.3798745
146	0xbfe44722	-1.7834208
147	0x3f3a4c1e	0.72772396
148	0xc01bba3a	-2.4332414
149	0xbf91d455	-1.1392924
150	0x3e8fb988	0.28071237
151	0xc0134f78	-2.3017254
152	0x3f47245c	0.77789855
153	0xc017310c	-2.3623686
154	0x3f3762b7	0.71635
155	0x3f649d77	0.8930277
156	0xbff8ae55	-1.9428202
157	0xc01cd7f2	-2.4506803
158	0xbdb1c0e0	-0.08679366
159	0xc01bf039	-2.436537
160	0xc017de0b	-2.3729274
161	0x3f31b1da	0.69412005
162	0xbfa816f1	-1.3132001
163	0xc0133776	-2.30026
164	0x3f9995ff	1.19989
165	0x3d71d940	0.059045076
166	0x3f1aa8a8	0.604136
167	0xc0153fe4	-2.3320246
168	0xc013e80a	-2.3110375
169	0xbf74567a	-0.9544445
170	0x3f28880f	0.6583261
171	0xc02824de	-2.6272502
172	0xc0187ee6	-2.3827453
173	0x3e1d9b19	0.15391196
174	0xc018212c	-2.3770247
175	0xc01fd08e	-2.4971042
176	0xc01424c0	-2.314743
177	0x3d5a8666	0.05335083
178	0xc0183eed	-2.3788407
179	0xbfbcd330	-1.4751949
180	0xc0158376	-2.3361487
181	0x3e537392	0.20649555
182	0x3ed315dd	0.41227618
183	0x3ee9198a	0.45527297
184	0xbfddf311	-1.7339803
185	0x3fd5f130	1.671423
186	0x3d4132c7	0.047167566
187	0x3fbc64f7	1.4718312
188	0x3f592f4d	0.848378
189	0xc015be9f	-2.3397596
190	0xc0121ab1	-2.282879
191	0x3f1e31fc	0.6179502
192	0x3f3777a9	0.7166696
193	0xbfec6b2b	-1.8470205
194	0x3e83d731	0.25750116
195	0xbff1e200	-1.8897095
196	0x3f51d037	0.81958336
197	0xc00460e5	-2.068414
198	0xbfffe964	-1.99931
199	0xbfec280c	-1.8449721
200	0xc000c224	-2.0118494
201	0xc0091de2	-2.142449
202	0xbe67ebdd	-0.22648568
203	0xbf3689d8	-0.7130408
204	0xbe487018	-0.1957401
205	0xbde6f7e0	-0.11277747
206	0xc00c9568	-2.196619
207	0xbffb3937	-1.9626836
208	0xbfc0012d	-1.5000359
209	0xc019d941	-2.4038851
210	0x3db22d2f	0.08700024
211	0xc004ea80	-2.0768127
212	0x3f79a4c7	0.97517055
213	0x3f12e062	0.5737363
214	0x3e399368	0.18122637
215	0xbfe4e6b6	-1.7882907
216	0x3e32f582	0.17476466
217	0xc018188f	-2.376499
218	0x3d35a27a	0.044344403
219	0x3ddb2db5	0.10702077
220	0xbffaa6b0	-1.9582119
221	0xbedce06e	-0.43139976
222	0x3f97dfc8	1.1865168
223	0x3f77c9be	0.9679221
224	0x3f80e2b2	1.0069182
225	0xc00f2835	-2.236829
226	0xbff13cae	-1.8846643
227	0x3f815103	1.0102848
228	0xbff533bd	-1.9156414
229	0xc0140329	-2.3126929
230	0x3ea6a475	0.32547346
231	0xbfe8c126	-1.8183944
232	0xbfb9423c	-1.4473338
233	0xbfe82f76	-1.8139484
234	0x3e50442a	0.20338503
235	0x3f03d14d	0.5149124
236	0x3f887f9c	1.0663943
237	0xbf096d24	-0.5368216
238	0xbfb38845	-1.4025961
239	0xbffe47ed	-1.98657
240	0xbff8f7c0	-1.9450607
241	0x3ecf13e9	0.40444878
242	0xbe010045	-0.12597759
243	0xbfef81a8	-1.8711443
244	0x3f310f3e	0.6916388
245	0xc00cf426	-2.2024016
246	0x3de8d1e8	0.113681614
247	0xbfed19aa	-1.8523457
248	0xbfe18856	-1.7619731
249	0x3f02a0c1	0.5102654
250	0xbcfbe291	-0.030747684
251	0xc003bf1d	-2.0585396
252	0xbffcd625	-1.9752852
253	0x3dadf73d	0.084944226
254	0xbf869ce9	-1.0516635
255	0x3fa195a4	1.2623792

rnn.weight_hh_l0 f4 [32, 32]
0	0xbd494d7a	-0.049146153
1	0xbcc988e3	-0.024601405
2	0x3c0a50f4	0.008442152
3	0x3bc5c21b	0.006035102
4	0x3d4b46e0	0.04962814
5	0x3d1e52ee	0.038653307
6	0x3d040944	0.0322354
7	0xbcbb1902	-0.022839073
8	0x3c762f31	0.0150259
9	0x3b2b5f4c	0.002614933
10	0xbae2e1df	-0.0017309746
11	0xbe0cff9b	-0.13769381
12	0xbc4d19c4	-0.01251835
13	0x3c99db4c	0.018781327
14	0x3ce5b906	0.028042328
15	0x3caa82ed	0.020814383
16	0xbe71b0e8	-0.2360264
17	0xbe4acd89	-0.19804968
18	0x3d290859	0.041267727
19	0xbd01f725	-0.031729836
20	0xbb2cbd5f	-0.002635799
21	0xbc805525	-0.0156656
22	0x3cc0e63d	0.023547286
23	0xbccfe2a0	-0.025376618
24	0xbb193962	-0.002338015
25	0xbdda1612	-0.10648741
26	0x3dbba339	0.091619916
27	0xbe70889b	-0.23489611
28	0xbcbc3bb6	-0.022977691
29	0xbc4ac107	-0.012375123
30	0x3d0cdc3e	0.034389727
31	0xbb543bae	-0.0032384205
32	0x3c1f211b	0.009712483
33	0xbd01ba85	-0.03167202
34	0xbc9f08c0	-0.019413352
35	0xbad38129	-0.0016136515
36	0xbcd27a63	-0.025693124
37	0x3cb3cbfe	0.021947857
38	0xbc860ad1	-0.01636258
39	0x3cec6b8b	0.028859874
40	0xbc82c96e	-0.01596519
41	0x3c0ef677	0.008725754
42	0xbd406c5c	-0.04697834
43	0xbdebecfc	-0.115198106
44	0xbc4b0b8c	-0.01239289
45	0xbc4d5fc3	-0.012535038
46	0xbce3a45a	-0.02778833
47	0x3c487689	0.012235292
48	0xbe85dbbf	-0.26144215
49	0xbe617fdb	-0.22021429
50	0xb9fb89ab	-0.0004797702
51	0x3d3be6cd	0.045874406
52	0x3d07d2a2	0.03315986
53	0xbe7c0f47	-0.24615203
54	0xbd9c41a1	-0.07629705
55	0x3c89a46e	0.016802039
56	0xbc0daeac	-0.008647602
57	0xbd152240	-0.036409616
58	0xbd0d4da8	-0.034497887
59	0xbd326675	-0.043554742
60	0xbce374f1	-0.027765723
61	0xbc4c7d68	-0.012481071
62	0xbd259da6	-0.04043355
63	0xbc62d3c3	-0.013844433
64	0xbbfaf9b5	-0.007659162
65	0xbc6591b2	-0.014011787
66	0xbd309261	-0.043108348
67	0xbc9c1d66	-0.019056987
68	0xbb14df2d	-0.002271603
69	0xbd1ab186	-0.037766956
70	0x3b2e3fe3	0.0026588372
71	0x3c13e9ee	0.009027941
72	0xbc483d35	-0.012221624
73	0x3c92b64b	0.01790919
74	0xbd1a8266	-0.037722014
75	0xbed0c764	-0.40777123
76	0x3bca1d70	0.00616806
77	0xbd3e6df9	-0.046491597
78	0xbd35b266	-0.044359587
79	0xbca8640a	-0.020555515
80	0xbe43a5b7	-0.19106184
81	0xbe668733	-0.22512512
82	0x3ce2fdea	0.027708966
83	0x3c0828cb	0.008310507
84	0x3cacf063	0.02111072
85	0xbe6c5983	-0.23081021
86	0xbd771fe6	-0.060333155
87	0x3c170fe0	0.0092200935
88	0xbd045835	-0.032310683
89	0xbedde924	-0.43341935
90	0xbd2be0a9	-0.0419623
91	0xbe00983b	-0.12558071
92	0x3c9efd7e	0.019407984
93	0x3b69b4f9	0.0035660847
94	0x3af20eff	0.0018467604
95	0x3ccc3da7	0.024931742
96	0x3c377ef5	0.0111997025
97	0x3d391354	0.04518445
98	0x3cc9a8ca	0.024616618
99	0x3b9e4c9c	0.00483091
100	0xbba77e7e	-0.0051115146
101	0x3b67b08e	0.0035353038
102	0x3d2354f6	0.039875947
103	0x3b113aa1	0.002216019
104	0x3ccd4970	0.025059432
105	0x3cc1210f	0.023575334
106	0xbb9a5cd6	-0.004710774
107	0xbe16d17e	-0.14728352
108	0xbb4b4b7c	-0.0031020334
109	0x3caa3000	0.020774841
110	0x3cfff923	0.031246727
111	0xbae04490	-0.0017110277
112	0xbe7369e5	-0.23770864
113	0xbe1d1d17	-0.15343128
114	0xbcfe0c6c	-0.031011783
115	0x3cae8956	0.021305721
116	0xbcd7c22b	-0.026337704
117	0xbe68aeb5	-0.22722895
118	0x3d227fdb	0.039672714
119	0x3cdf39d3	0.027249252
120	0xbc3a5b9d	-0.011374381
121	0xbe9557ca	-0.2916854
122	0x3c7cc2e1	0.015427322
123	0xbe46fbda	-0.19432011
124	0x3bbbae07	0.005727533
125	0x3d0fa9c9	0.03507403
126	0x3c82d1ec	0.01596924
127	0xbc701b74	-0.014654983
128	0x3cb7fe8e	0.022460248
129	0xbc061acf	-0.008185103
130	0xbca53b48	-0.020169869
131	0xbc97f88a	-0.01855113
132	0xbda5f22b	-0.081028305
133	0xbded4513	-0.115854405
134	0xbd37fd42	-0.04491926
135	0x3d2528c2	0.040322073
136	0xbd437e07	-0.04772761
137	0x3d4e313e	0.05033993
138	0x3c38f9f0	0.0112900585
139	0xbdb0943b	-0.08622023
140	0x3c963c8a	0.018339414
141	0xbd3e8e00	-0.04652214
142	0xbd9d4535	-0.07679216
143	0xbdc1e54f	-0.09467565
144	0xbe73e172	-0.2381647
145	0x3ca50c2b	0.020147404
146	0xbde3ede4	-0.111293584
147	0xbac67088	-0.0015139738
148	0xbd0746d0	-0.033026516
149	0xbdc4d2b1	-0.09610499
150	0xbd99b754	-0.0750567
151	0x3d4f38e5	0.05059137
152	0xbcbdf11d	-0.02318626
153	0xbe54995a	-0.20761624
154	0xbe042e98	-0.12908399
155	0xbe8956dc	-0.2682408
156	0x3b9a6d62	0.0047127465
157	0x3d11d52d	0.03560369
158	0xbb94df7c	-0.004543243
159	0xbbbb7f6c	-0.005721977
160	0x3d188599	0.037236784
161	0x3d6daeb2	0.05802793
162	0x3d91e0f6	0.07122986
163	0xbc80de7d	-0.01573109
164	0xbcba62ad	-0.02275213
165	0x3dab5e50	0.08367598
166	0x3d9df8c8	0.07713467
167	0x3de723a4	0.11286095
168	0xbbdb2ba1	-0.0066885506
169	0x3b96b5ef	0.004599325
170	0x3ca8ac69	0.020590024
171	0xbdf5218c	-0.11969289
172	0xbcedee09	-0.029044168
173	0x3da969fc	0.08272168
174	0x3df08545	0.11744169
175	0x3df460cf	0.11932527
176	0xbdf52466	-0.11969833
177	0xbc6d5183	-0.014484766
178	0x3bea7ebc	0.007156221
179	0x3d981f89	0.0742789
180	0x3ce11820	0.027477324
181	0xbc86c2c9	-0.016450303
182	0x3cd14b38	0.025548562
183	0x3c98d60b	0.018656751
184	0xbb02108a	-0.0019846284
185	0xbe3bdc37	-0.18345724
186	0x3d9dc010	0.07702649
187	0xbe3b027d	-0.18262668
188	0x3b9b9628	0.0047481246
189	0x3d6791f4	0.056535676
190	0x3cec781d	0.028865868
191	0x3d61cb37	0.05512544
192	0xbcdcf870	-0.026973933
193	0xbc571d31	-0.013129518
194	0xbbab035f	-0.0052189077
195	0x3bbfe3fc	0.0058560353
196	0xbd31e6c9	-0.043432985
197	0xbda5e8fd	-0.081010796
198	0xbd5b0f2f	-0.053481277
199	0x3d869531	0.06571425
200	0xbd81f27a	-0.06345077
201	0x3bafc6db	0.0053642816
202	0xbbeda58c	-0.0072524007
203	0xbd8a4d58	-0.067530334
204	0xbc428c39	-0.011874252
205	0xbd1dda03	-0.03853799
206	0xbda0e295	-0.07855717
207	0xbd4b23db	-0.04959474
208	0xbe1e03dc	-0.1543116
209	0xbe9eda59	-0.3102596
210	0xbcc892af	-0.024484007
211	0x3caddc87	0.02122332
212	0x3caad67a	0.020854224
213	0xbe62c689	-0.22146048
214	0xbdc17c68	-0.09447557
215	0xbd0c1575	-0.03420015
216	0xbd2e7ab9	-0.042597506
217	0xbde36421	-0.111030824
218	0xbd4f58b9	-0.050621722
219	0xbd7c901c	-0.06166087
220	0x3a2e6a34	0.0006653399
221	0xbc997fad	-0.018737638
222	0xbc0b7786	-0.008512383
223	0x3c0d8fa2	0.008640202
224	0xbc8fb116	-0.017540496
225	0xbbefb988	-0.007315818
226	0xbe154ae7	-0.14579354
227	0xbe283ca4	-0.16429383
228	0xbdc64625	-0.09681348
229	0xbe20efea	-0.1571652
230	0xbbe2c952	-0.006920972
231	0x3d60ea48	0.054910928
232	0xbdeaa2fc	-0.11456868
233	0x3c37fbfa	0.0112295095
234	0xbcd780d5	-0.02630655
235	0xbe89eecc	-0.2694
236	0x3d95a5f9	0.073070474
237	0xbdd71272	-0.10501565
238	0xbe0fb049	-0.14032091
239	0xbe0df070	-0.13861251
240	0xbe56fa0a	-0.2099382
241	0xbe584b0c	-0.21122378
242	0xbdfe4d14	-0.12417045
243	0x3d974a15	0.07387177
244	0xbc3dd799	-0.011587047
245	0xbebad5a2	-0.36491114
246	0xbe281150	-0.16412854
247	0x3e137524	0.14400154
248	0xbd99389b	-0.074815
249	0x3d1cc131	0.03827018
250	0xbe282977	-0.16422068
251	0xbd9ef4d4	-0.07761541
252	0x3c0b5512	0.008504169
253	0x3bf8b3a3	0.0075897737
254	0xbcb2b22c	-0.021813475
255	0xbd0a8340	-0.033816576

rnn.bias_ih_l0 f4 [32]
0	0x3d7b4102	0.061341293
1	0x3e90d79a	0.2828949
2	0x3eaa5225	0.33265796
3	0x3e720439	0.23634423
4	0x3ee42e0c	0.4456638
5	0x3dce7975	0.1008176
6	0x3ec0b6af	0.37639377
7	0x3ebfe34b	0.37478098
8	0x3e9564f7	0.29178593
9	0x3e96b5c0	0.2943554
10	0x3e184485	0.14869888
11	0xbf595b32	-0.8490478
12	0x3e27f5d0	0.16402364
13	0x3e188553	0.14894609
14	0x3e01c4ca	0.12672725
15	0x3e2a7c74	0.16649038
16	0xbf22d134	-0.6360047
17	0x3be9c987	0.0071346196
18	0xbc714f42	-0.014728369
19	0x3e177c11	0.14793421
20	0x3db22804	0.086990386
21	0xbeae9c5f	-0.34103677
22	0x3e645e30	0.22301555
23	0x3db67fa0	0.08911061
24	0x3e649458	0.22322214
25	0xbf0f4e25	-0.55978614
26	0x3d6b5413	0.057453226
27	0xbecc26a1	-0.39873222
28	0x3e637f2e	0.22216484
29	0x3e3bb5e5	0.18331106
30	0x3ec6aed5	0.3880526
31	0x3e192751	0.14956404

rnn.bias_hh_l0 f4 [32]
0	0x3eaf99ce	0.3429703
1	0x3eaed322	0.34145457
2	0x3ece03f2	0.40237385
3	0x3e195d0a	0.14976898
4	0x3ed0dc57	0.40793106
5	0x3de44c0f	0.111473195
6	0x3e8fe96c	0.28107774
7	0x3eb7bc1c	0.35885704
8	0x3e58827d	0.21143527
9	0x3ee25b1c	0.44210136
10	0x3e9071a0	0.2821169
11	0xbf3cd578	-0.7376323
12	0x3e31bdc3	0.17357545
13	0x3d69abdf	0.057048675
14	0x3e806fc2	0.25085264
15	0x3d4a6e30	0.04942149
16	0xbf31c598	-0.6944213
17	0xbd928ac3	-0.07155373
18	0x3b82d283	0.00399238
19	0x3ecd9504	0.40152752
20	0x3eaf9d22	0.3429957
21	0xbe5ba6ca	-0.21450344
22	0x3dcc3b40	0.099722385
23	0x3e00a2b5	0.12562068
24	0x3dce1b24	0.100637704
25	0xbee00d90	-0.43760347
26	0x3ded51d0	0.1158787
27	0xbe81770a	-0.25286132
28	0x3dd93168	0.106051266
29	0x3d621089	0.05519155
30	0x3e99e05c	0.30053985
31	0x3e963c82	0.2934304

fc.weight f4 [64, 32]
0	0x3f84b949	1.0369045
1	0xbe2a73c3	-0.16645722
2	0xbfceb840	-1.6149979
3	0x3f490dae	0.785365
4	0xbeabcfe6	-0.3355705
5	0x3f949b41	1.160988
6	0xbe613f0c	-0.21996707
7	0xbf07ba86	-0.5301899
8	0x3e0e123b	0.13874142
9	0xbe3e9ca4	-0.18614441
10	0x3f92794f	1.144327
11	0x3d1077a1	0.035270337
12	0xbf9a13a2	-1.2037241
13	0x3fa19830	1.2624569
14	0x3f61b775	0.8817056
15	0x3f5cf652	0.86313355
16	0xbf08064a	-0.53134596
17	0xbe8d30d6	-0.2757632
18	0x3f820e30	1.016058
19	0xbecee4b7	-0.4040887
20	0x3f1c712b	0.6111018
21	0xbefeb55c	-0.4974774
22	0x3fa85cc1	1.3153306
23	0xc0120560	-2.281578
24	0x3f4a937b	0.7913129
25	0x3e1aec3b	0.15129177
26	0x3e8cb007	0.27478048
27	0xbe74e8ee	-0.2391698
28	0xc05a1859	-3.407736
29	0xbfe1ab0e	-1.7630327
30	0xbed22690	-0.41045046
31	0xbf1ba5e0	-0.6079998
32	0x3f9fb6c7	1.2477654
33	0xbff854ad	-1.9400841
34	0xc0780290	-3.8751564
35	0xbff1b807	-1.8884286
36	0x3f051761	0.519888
37	0xbfe82e6f	-1.813917
38	0x3f3e17ba	0.74254954
39	0x3f2ea6ad	0.6822308
40	0xbfe4c807	-1.7873544
41	0x3f7e3fc3	0.9931604
42	0x3f520183	0.82033557
43	0x3da24953	0.07924142
44	0xbfed845b	-1.8556017
45	0xbfd6c171	-1.6777784
46	0xc02263dc	-2.537345
47	0x3fa24971	1.2678663
48	0xbf75cdf6	-0.96017396
49	0x3e115067	0.14190827
50	0x3f80b8fd	1.0056454
51	0x3f0eb232	0.55740654
52	0xbff8d75b	-1.9440721
53	0xbee2d744	-0.4430486
54	0x3f1f4af2	0.6222373
55	0x3eea5c44	0.45773518
56	0x3fac00b3	1.3437713
57	0x3cbd2f06	0.023093712
58	0x3fb97122	1.448765
59	0xbd921fe8	-0.07134992
60	0xc037494f	-2.8638494
61	0x3ec3641b	0.38162312
62	0xc00e8ce0	-2.2273483
63	0xc041328c	-3.0187101
64	0xbff33625	-1.9000899
65	0x3efb8b56	0.49129742
66	0x3e816db2	0.25279003
67	0x3edb4241	0.42823985
68	0x3f33a2ea	0.7017046
69	0xbfe5e956	-1.7961833
70	0x3ed9a9bf	0.42512318
71	0x3f28b454	0.6590016
72	0x3f855855	1.0417582
73	0xbfc81250	-1.5630589
74	0x3f86b02b	1.0522512
75	0xbcba1fb9	-0.022720205
76	0xbf1f8976	-0.62319124
77	0xc00f7e78	-2.242094
78	0xc01f1393	-2.4855697
79	0x3f417413	0.7556774
80	0xbf2da1b8	-0.6782489
81	0xbe5bfc79	-0.2148303
82	0x3f32b9e7	0.69814914
83	0x3f676001	0.90380865
84	0xc0120498	-2.2815304
85	0xbf03a2b2	-0.5142013
86	0xbff68d35	-1.9261843
87	0x3f423909	0.7586828
88	0xbe1c982d	-0.15292425
89	0x3d85c650	0.06531966
90	0xc02210d0	-2.5322762
91	0x3d8e7fa4	0.06957939
92	0xbf6e125a	-0.9299675
93	0x3f8e4588	1.1114969
94	0xbfdb9441	-1.7154619
95	0xc042920c	-3.040164
96	0xbfa7c89d	-1.3108097
97	0x3f2dc616	0.6788038
98	0xc084d9aa	-4.1515703
99	0xc037f1dd	-2.8741372
100	0x3f507f19	0.81443936
101	0xbfb84813	-1.4396995
102	0x3ee96727	0.45586511
103	0x3f811b7c	1.0086513
104	0x3fb7055b	1.4298509
105	0x3f895e3e	1.0731885
106	0xbf8757b3	-1.0573639
107	0x3dd3acdd	0.103357054
108	0x3fbfc07c	1.4980617
109	0x3fafc1ad	1.373098
110	0x3f9a784f	1.2067965
111	0xbfe11501	-1.7584535
112	0xbf3e1c49	-0.7426191
113	0xbf62e75d	-0.8863428
114	0xbf789884	-0.9710772
115	0xbf4d76e7	-0.80259556
116	0x3fa6b421	1.3023721
117	0xbefdcbf0	-0.49569654
118	0xbfa3393a	-1.2751839
119	0xc0359c4c	-2.8376646
120	0xbfc0482f	-1.5022029
121	0xbd5746f1	-0.05255789
122	0xbf864f7d	-1.0493008
123	0xbe4a9cae	-0.19786331
124	0x3f0de1bb	0.5542256
125	0x3e2a3daf	0.16625093
126	0xbf32ba98	-0.6981597
127	0xc043ba65	-3.0582516
128	0xbfb39367	-1.4029359
129	0xbf843724	-1.0329328
130	0xc06c5556	-3.6927085
131	0x3f94ca69	1.1624271
132	0xbe3aeb43	-0.18253808
133	0x3f9ccf17	1.2250699
134	0x3e8737ed	0.26409855
135	0x3f2cee01	0.67550665
136	0xbfdac9bb	-1.7092813
137	0x3f32cac6	0.6984066
138	0xbfa6f8ec	-1.3044715
139	0xbe10d78b	-0.14144723
140	0x3fbd2ca5	1.477925
141	0x3fb2deae	1.3974206
142	0xc00745e6	-2.1136413
143	0xc008a830	-2.1352654
144	0xbf796e0b	-0.9743354
145	0xbeecb692	-0.4623304
146	0xbf91dbd9	-1.1395217
147	0xbfcf4fa7	-1.6196183
148	0x3f95761c	1.1676669
149	0xbf055aa7	-0.5209145
150	0x3f881a27	1.0632981
151	0x3f3e42ef	0.7432088
152	0x3fa2f1db	1.2730058
153	0xbdf63f29	-0.120237656
154	0xbfb9527e	-1.44783
155	0xbd600b54	-0.054698303
156	0xbeac381a	-0.33636552
157	0xc05ca090	-3.4473
158	0x3ef613c4	0.48061955
159	0xc0773ae9	-3.8629706
160	0xbf981bb8	-1.1883459
161	0xbe9d184d	-0.30682603
162	0x3f0e66ae	0.55625427
163	0xc05b84a8	-3.4299717
164	0xc01354ed	-2.3020585
165	0x3f340fd0	0.7033663
166	0xbf47249c	-0.77790236
167	0x3f564289	0.83695275
168	0x3f6b6c3b	0.9196202
169	0xbf28735a	-0.6580101
170	0xbffca6c3	-1.9738392
171	0xbd84b009	-0.064788885
172	0xbff02d3a	-1.8763802
173	0xc01d13af	-2.4543264
174	0x3f7e5c0d	0.9935921
175	0x3eb77dcd	0.35838166
176	0xbe0cc795	-0.1374801
177	0xbd5ca5ab	-0.05386893
178	0xbfca401a	-1.5800812
179	0x3ecf15af	0.4044623
180	0x3e257949	0.16159548
181	0xbea8b466	-0.32950133
182	0x3e72347e	0.23652837
183	0x3f1aa1cd	0.6040314
184	0x3ebc7953	0.36811313
185	0x3e39cf34	0.18145448
186	0xbeb500b3	-0.35352096
187	0xbcccb9b5	-0.024990896
188	0x3e82349a	0.25430757
189	0x3ed96bba	0.42465
190	0xbeae7506	-0.34073657
191	0xc02dd916	-2.7163749
192	0x3f5670a7	0.83765644
193	0x3efbcae7	0.4917824
194	0xbf2d2516	-0.67634714
195	0xc02ac482	-2.668244
196	0x3f2f2318	0.68412924
197	0xbe104b65	-0.1409126
198	0xbfc0e069	-1.5068485
199	0x3eefa0ea	0.46802455
200	0xbded2591	-0.11579431
201	0xbfe99192	-1.824755
202	0x3f4879c7	0.7831082
203	0x3dbb4874	0.09144679
204	0x3f1b53f3	0.6067497
205	0xc0085509	-2.1301901
206	0xbf888bc3	-1.0667652
207	0x3eeef824	0.4667369
208	0xbdb8660d	-0.0900384
209	0xbe9ae51e	-0.30252928
210	0xbfc7dfd8	-1.5615187
211	0xbfd3dff7	-1.6552724
212	0xbfbf8d5c	-1.4965014
213	0xbdd49e09	-0.10381705
214	0xbbd92b19	-0.006627452
215	0xc034e1f7	-2.8262918
216	0xbfdeb54c	-1.7399077
217	0x3c141098	0.009037159
218	0x3d3bb355	0.04582532
219	0xbd3bd403	-0.045856487
220	0x3fee614d	1.8623444
221	0x3eaf8296	0.34279317
222	0xbfde9407	-1.7388924
223	0x3ef937a5	0.48675266
224	0x3fc2fa61	1.523266
225	0x3d6053b1	0.054767314
226	0x3f91205b	1.1337999
227	0xbff0ae49	-1.8803188
228	0x3f4463a5	0.76714545
229	0x3fbf9bb5	1.4969393
230	0x3f246645	0.6421855
231	0x3edd7960	0.43256664
232	0xbf73b8e9	-0.95204026
233	0xbfa48804	-1.2854009
234	0xbf7d57e6	-0.9896225
235	0x3cbdd398	0.023172185
236	0x3fbe33cc	1.4859557
237	0xbfce65b5	-1.6124789
238	0xbfccb7e8	-1.5993624
239	0xbfa779b8	-1.3084021
240	0xbf5adbb4	-0.8549149
241	0xbf2af762	-0.66783726
242	0x3fa3e2e3	1.2803615
243	0x3f94b11a	1.1616547
244	0xbf40fca7	-0.75385517
245	0xbf5b6251	-0.85696894
246	0x3f865e98	1.0497618
247	0x3e999929	0.29999664
248	0x3f65e59f	0.898035
249	0x3de44f30	0.11147916
250	0xbff08975	-1.8791949
251	0xbdf048e1	-0.117326505
252	0xc08fca0a	-4.493413
253	0xc074c69d	-3.8246224
254	0xbf766038	-0.9624057
255	0xc0886975	-4.262873

fc.bias f4 [64]
0	0xbf2b1026	-0.66821516
1	0x3e8cfb83	0.27535638
2	0x3d8cef0d	0.06881533
3	0x3ce997ba	0.028514732
4	0xbc314c14	-0.010821361
5	0x3e3eda74	0.18638021
6	0x3e900d9b	0.2813538
7	0x3e4554c6	0.1927062
8	0x3d062a2e	0.03275507
9	0xbb0a2fbe	-0.0021085585
10	0x3de0f601	0.109844215
11	0xbe3ac384	-0.18238646
12	0xbec51ecd	-0.38500062
13	0xbd47dea2	-0.048796304
14	0x3e35b487	0.17744647
15	0xbf1471ca	-0.5798613
16	0x3f5ab50e	0.8543252
17	0x3f8b921f	1.0903968
18	0xbe1cc9e1	-0.15311386
19	0xbe148f61	-0.1450782
20	0x3f10701b	0.5642106
21	0x3ee2a2ca	0.44264823
22	0xbf16e776	-0.5894693
23	0x3f258999	0.6466308
24	0xbf06962b	-0.5257289
25	0x3e8f761d	0.280198
26	0x3f3d5aa1	0.73966414
27	0x3ea9fc96	0.3320052
28	0xbc8367ce	-0.016040709
29	0x3df83dce	0.12121163
30	0x3cc137e3	0.02358622
31	0x3eed1fe2	0.46313387
32	0x3e10ee02	0.14153293
33	0x3eb8ce5b	0.36094937
34	0xbe9c11ef	-0.30482432
35	0x3ee3f551	0.445231
36	0x3e41d52d	0.18928976
37	0x3d29084f	0.04126769
38	0x3efb88a4	0.49127686
39	0x3ed37846	0.413027
40	0xbe870112	-0.26368004
41	0xbee49fca	-0.4465316
42	0x3e3211b5	0.17389567
43	0xbded2552	-0.11579384
44	0xbd7da42f	-0.061924156
45	0xbe2ba4c4	-0.16762072
46	0x3df0d746	0.1175981
47	0xbead9795	-0.3390471
48	0x3fb48878	1.4104147
49	0xbdd3473e	-0.10316323
50	0xbeb9e5b6	-0.36308068
51	0x3e707ad2	0.23484352
52	0xbe345381	-0.17609979
53	0xbe08622e	-0.13318703
54	0x3e2ac058	0.16674936
55	0x3e7ada70	0.2449739
56	0xbefd1395	-0.49429002
57	0x3dd9a11e	0.10626434
58	0xbe3f6c30	-0.18693614
59	0xbe869668	-0.26286626
60	0x3ed1cd84	0.40977108
61	0x3e8cb96c	0.27485216
62	0x3ce538ed	0.027981246
63	0xbf055093	-0.5207607
